alamin.pt (torch, 52057 bytes, 3 tensors)

1.weight f4 [50, 250]
-0.068573326 -0.058213986 0.055046935 0.050395053 -0.043186516 -0.031105183 -0.055525478 -0.03485283
0.052627865 0.04234093 -0.061478652 -0.03078655 0.0077212458 0.048723437 -0.01937416 0.029050885
-0.05708673 0.02377506 -0.008494238 -0.0008406358 -0.003447437 -0.024609601 -0.061163336 -0.022208128
0.016495138 0.039791916 -0.028298177 0.03488443 0.026732694 -0.05937616 0.024675896 -0.044814955
-0.025635464 -0.0050250096 0.00026164853 -0.06643459 -0.032240458 0.02618011 -0.055265345 -0.07583848
-0.06443096 0.043642502 0.0177166 -0.032262158 0.020050738 -0.014776428 0.015675247 0.038041025
-0.026971236 -5.3671527e-05 -0.023053732 0.012769494 -0.03557055 0.03859809 0.0294303 -0.05819158
-0.053417537 -0.011589396 0.034348246 0.025486005 -0.00092707976 0.015932228 -0.024830833 -0.022729617
-0.064999096 -0.0042062863 -0.0018577261 -0.016221303 0.039516445 -0.0029460466 -0.012720718 0.02477798
0.04675062 -0.02899547 -0.04585645 -0.040275116 0.033266887 0.008704589 -0.06829776 0.015206539
-0.015559409 0.035648562 -0.014678553 -0.029472096 -0.044455115 -0.012833676 0.022814969 -0.04107988
0.028546743 0.0122488495 0.036705934 0.039860155 0.013862022 0.052526426 -0.00014250768 -0.02693572
-0.00088723336 0.050266728 0.053687852 -0.06250794 -0.06818242 -0.046863873 -0.016966794 -0.005463411
-0.05705368 -0.04725485 0.0428325 -0.045061093 0.038958866 -0.022172421 -0.07257653 0.0067702816
0.009779342 0.0076594404 -0.06278033 -0.015406342 -0.00030047813 0.034867913 -0.03269164 -0.00080318656
-0.024934316 -0.03308749 0.0058561093 -0.021521155 0.033414606 -0.046159603 -0.07189978 0.042799063
-0.007665526 -0.052561797 0.015676754 0.03053859 -0.062094834 -0.055718992 -0.013733965 -0.05949124
-0.044207387 0.04660837 -0.037996948 0.028902242 0.014577974 -0.03936787 -0.02522877 -0.049026195
-0.031405903 -0.011158324 0.041896287 -0.04789673 0.058527917 -0.07973906 0.02681941 -0.027086163
-0.026121221 -0.06401859 -0.0035008732 0.025227018 0.028333548 -0.0025713001 -0.03903334 -0.022324705
-0.010408624 -0.015800903 -0.036035936 -0.004877623 -0.05684227 -0.0758961 -0.06971233 -0.06285023
0.00474146 0.005380781 -0.06588997 -0.07619081 -0.0018734563 -0.02030262 -0.06499011 0.022694679
0.0062236697 -0.0023905523 0.020956505 -0.0064829374 -0.019671166 0.05031427 0.05205888 0.018080853
0.01795988 0.02750556 -0.045758605 -0.023149159 0.008794928 0.020360326 -0.018388381 -0.015454071
0.00399177 0.044219002 0.015989603 -0.040074706 0.002394218 -0.0024601023 -0.01066431 -0.066651985
-0.04011164 0.005159547 0.029888822 -0.016770314 -0.030547608 -0.020767601 0.02128136 0.0009034456
0.0572266 0.033532735 -0.036219414 0.03561359 -0.005608424 -0.0034071319 0.00018779773 -0.040551957
0.0020239814 -0.008218445 0.010986567 -0.022809342 -0.0716029 -0.040213436 0.01817242 -0.045586985
0.038641356 -0.04748267 0.045509584 -0.044613853 -0.010819886 -0.024649289 -0.06719312 -0.05029287
-0.025983611 0.053056844 -0.07080078 -0.023276491 -0.05361397 0.04039897 0.025358953 -0.049870707
-0.020313269 -0.013669654 -0.04191353 0.035360113 -0.045100458 -0.049623195 -0.06700897 0.014748288
-0.0056494884 -0.057404045 0.099831365 0.03295818 0.019425191 0.07548745 0.091121875 0.13420004
00000000: 2c70 8cbd ca71 6ebd e578 613d 0b6b 4e3d
00000010: 58e4 30bd 4cd0 febc af6e 63bd d7c1 0ebd
00000020: 5190 573d af6d 2d3d 0ad1 7bbd 1334 fcbc
00000030: 8102 fd3b 3a92 473d 8fb6 9ebc 1ffc ed3c
00000040: c6d3 69bd eac3 c23c 6b2b 0bbc 1d5e 5cba
00000050: 65ee 61bb 139a c9bc 6886 7abd d2ed b5bc
00000060: d020 873c d9fc 223d 94d1 e7bc fae2 0e3d
00000070: 86fe da3c 6b34 73bd 1b25 ca3c e38f 37bd
00000080: 7701 d2bc d6a8 a4bb df2d 8939 dc0e 88bd
00000090: 920e 04bd ac77 d63c ea5d 62bd 3451 9bbd
000000a0: 61f4 83bd 7bc2 323d 6722 913c 5325 04bd
000000b0: 7241 a43c d518 72bc 6069 803c e8d0 1b3d
000000c0: c8f2 dcbc 5d1d 61b8 2edb bcbc 2437 513c
000000d0: 6db2 11bd 0819 1e3d d017 f13c 4b5a 6ebd
000000e0: 59cc 5abd 73e1 3dbc bfb0 0c3d 07c8 d03c
000000f0: 4507 73ba 4e84 823c 086a cbbc 7633 babc
00000100: 3f1e 85bd e3d4 89bb f27e f3ba 8ae2 84bc
00000110: ffdb 213d 7612 41bb 8f6a 50bc 31fb ca3c
00000120: 947d 3f3d e887 edbc f9d3 3bbd 85f7 24bd
00000130: dc42 083d b19d 0e3c b2df 8bbd d924 793c
00000140: e4ec 7ebc 3a04 123d 507e 70bc 776f f1bc
00000150: 9116 36bd 5744 52bc 75e6 ba3c 6043 28bd
00000160: dcda e93c 66af 483c f658 163d 6744 233d
00000170: 891d 633c f325 573d 1d6e 15b9 4da8 dcbc
00000180: 3995 68ba 7ce4 4d3d cbe7 5b3d 2a04 80bd
00000190: 3aa3 8bbd 55f4 3fbd f2fd 8abc 6a06 b3bb
000001a0: 1fb1 69bd 4d8e 41bd 2271 2f3d fb91 38bd
000001b0: 5593 1f3d f0a2 b5bc 01a3 94bd 3dd9 dd3b
000001c0: 8939 203c 0bfc fa3b f992 80bd e26a 7cbc
000001d0: 7e89 9db9 a8d1 0e3d abe7 05bd f08c 52ba
000001e0: 0d43 ccbc bf86 07bd 9be4 bf3b 224d b0bc
000001f0: c1dd 083d da11 3dbd 3140 93bd 124e 2f3d
00000200: 182f fbbb 0a4b 57bd 896c 803c 112c fa3c
00000210: 2757 7ebd 9939 64bd 6d04 61bc 16ad 73bd
00000220: ce12 35bd 6be8 3e3d b0a2 1bbd 65c4 ec3c
00000230: 74d8 6e3c 3440 21bd 91ac cebc b1cf 48bd
00000240: 7aa3 00bd 67d1 36bc 719b 2b3d 5d2f 44bd
00000250: f8ba 6f3d 3b4e a3bd 61b4 db3c cde3 ddbc
00000260: 2cfc d5bc 2e1c 83bd e86e 65bb e4a8 ce3c
00000270: c21b e83c 4283 28bb 6ce1 1fbd 4de2 b6bc
00000280: ef88 2abc e570 81bc 6b9a 13bd 78d4 9fbb
00000290: 71d3 68bd 6a6f 9bbd 57c5 8ebd 9fb7 80bd
000002a0: 405e 9b3b 4351 b03b 52f1 86bd ed09 9cbd
000002b0: c38e f5ba ae51 a6bc 8919 85bd 31ea b93c
000002c0: edef cb3b d0aa 1cbb faac ab3c d26e d4bb
000002d0: 6d25 a1bc 5616 4e3d b13b 553d 4c1e 943c
000002e0: 9920 933c 5753 e13c 606d 3bbd 4ea3 bdbc
000002f0: 9a18 103c b3ca a63c 3ba3 96bc 1233 7dbc
00000300: 65cd 823b fc1e 353d a1fc 823c 6025 24bd
00000310: 50e8 1c3b ab39 21bb 5cb9 2ebc d680 88bd
00000320: 1a4c 24bd 6b11 a93b 67d9 f43c e661 89bc
00000330: fa3e fabc d120 aabc 3f56 ae3c 35d5 6c3a
00000340: 7066 6a3d 9f59 093d cf5a 14bd 8edf 113d
00000350: dfc6 b7bb 304a 5fbb 92eb 4439 cf19 26bd
00000360: c6a4 043b a8a6 06bc 0001 343c a8da babc
00000370: 8ba4 92bd d8b6 24bd 54de 943c 6bb9 3abd
00000380: 6646 1e3d 307d 42bd 4268 3a3d 04bd 36bd
00000390: e445 31bc 4eed c9bc 8c9c 89bd e5ff 4dbd
000003a0: 95db d4bc 2252 593d 0000 91bd 57ae bebc
000003b0: 529a 5bbd 6479 253d 94bd cf3c 3a45 4cbd
000003c0: 0368 a6bc aff6 5fbc 86ad 2bbd c4d5 103d
000003d0: 42bb 38bd b141 4bbd 003c 89bd cea2 713c
000003e0: 581f b9bb 8120 6bbd 6374 cc3d 28ff 063d
000003f0: 9421 9f3c 2a99 9a3d 1b9e ba3d bc6b 093e

1.bias f4 [50]
-0.016221352 0.14368464 0.04262084 0.028180636 0.10006111 0.016000776 -0.0013087078 0.07068997
0.08309219 -0.029115599 -0.063086495 0.03389282 0.060279287 -0.073333696 0.30743524 -0.015494499
0.069000006 -0.029535262 -0.047688786 -0.081529 0.06216232 0.09222217 0.015478693 0.12382902
0.06612868 -0.05470126 0.011135731 0.004289349 -0.0458855 -0.018849583 0.08453867 -0.0034985463
-0.029240234 0.07429802 -0.061171267 0.082365945 0.1162371 -0.05524773 0.11989819 0.0511918
0.036443308 -0.047268756 0.09075995 0.105527245 0.006650656 0.028726283 0.1033251 0.11275265
0.029248532 -0.060579363
00000000: a4e2 84bc 1122 133e 3193 2e3d 14db e63c
00000010: d7ec cc3d 0f14 833c f288 abba e7c5 903d
00000020: 3d2c aa3d d683 eebc 7e33 81bd 33d3 0a3d
00000030: 6ae7 763d fa2f 96bd 2768 9d3e a4dc 7dbc
00000040: e04f 8d3d eff3 f1bc 5155 43bd adf8 a6bd
00000050: eb9d 7e3d fade bc3d 589a 7d3c 129a fd3d
00000060: 796e 873d 6e0e 60bd a472 363c ab8d 8c3b
00000070: 6ff2 3bbd 716a 9abc 9c22 ad3d de47 65bb
00000080: 3789 efbc 8f29 983d b98e 7abd 7aaf a83d
00000090: b70d ee3d 724b 62bd 2f8d f53d 7eae 513d
000000a0: 9445 153d e29c 41bd 5ae0 b93d ab1e d83d
000000b0: bfed d93b 6253 eb3c 1c9c d33d ddea e63d
000000c0: 9e9a ef3c 1122 78bd

3.weight f4 [1, 50]
0.07371684 -0.15774716 -0.21381706 0.08796692 -0.15067644 0.03745328 0.039599493 -0.18576963
-0.19114019 0.07892537 0.05176317 0.05152645 -0.27390343 0.0029720555 -0.28135684 0.07751381
-0.21602902 0.011505439 0.10585392 0.06312783 -0.17232782 -0.19713345 0.025679795 -0.15185437
-0.14588472 0.058271024 -0.00310492 -0.0029177966 0.05648108 0.075564206 -0.22637919 0.016679216
0.119717546 -0.24031176 0.10303737 -0.25069755 -0.16036555 0.051871847 -0.20529732 -0.24451008
-0.25787994 0.018675514 -0.25340083 -0.20041038 0.067321554 -0.24714422 -0.20105779 -0.19173674
0.026798664 0.073253736
00000000: dbf8 963d 7988 21be dcf2 5abe 0028 b43d
00000010: ed4a 1abe 9c68 193d 1433 223d 653a 3ebe
00000020: 41ba 43be a0a3 a13d 9e05 543d 660d 533d
00000030: 123d 8cbe d1c6 423b 010e 90be 8fbf 9e3d
00000040: b636 5dbe 4f81 3c3c f1c9 d83d 2a49 813d
00000050: b476 30be 5add 49be 6f5e d23c b67f 1bbe
00000060: ce62 15be 99ad 6e3d ea7b 4bbb 8138 3fbb
00000070: b458 673d 68c1 9a3d f2cf 67be daa2 883c
00000080: 792e f53d 4914 76be 4205 d33d 6e5b 80be
00000090: de36 24be 9377 543d 7639 52be da60 7abe
000000a0: d708 84be 64fd 983c c1bd 81be 6138 4dbe
000000b0: e2df 893d 6013 7dbe 18e2 4dbe a356 44be
000000c0: df88 db3c 0e06 963d
