alamin.pt (torch, 52057 bytes, 3 tensors)

1.weight f4 [50, 250]
00000000: 2c70 8cbd 0f31 87bd e578 613d 0b6b 4e3d
00000010: 58e4 30bd 4cd0 febc af6e 63bd d7c1 0ebd
00000020: 5190 573d af6d 2d3d 0ad1 7bbd 9879 14bd
00000030: 8102 fd3b 3a92 473d 8fb6 9ebc 1ffc ed3c
00000040: 1c9c 70bd eac3 c23c 6b2b 0bbc 1d5e 5cba
00000050: 65ee 61bb 7d7f 02bd 6886 7abd d2ed b5bc
00000060: d020 873c dd60 023d afd6 e7bc fae2 0e3d
00000070: 86fe da3c 6b34 73bd 1b25 ca3c 8587 3dbd
00000080: 7701 d2bc d6a8 a4bb df2d 8939 dc0e 88bd
00000090: d4b3 19bd ac77 d63c ea5d 62bd 3451 9bbd
000000a0: 61f4 83bd 942a 123d 6722 913c 5325 04bd
000000b0: 7241 a43c d518 72bc 6069 803c e8d0 1b3d
000000c0: c8f2 dcbc 8152 03bc 2edb bcbc 37ff 4b3c
000000d0: 6db2 11bd 0819 1e3d d017 f13c 4b5a 6ebd
000000e0: 63f3 78bd 73e1 3dbc bfb0 0c3d 07c8 d03c
000000f0: bdb8 07bc 62bc 073c 086a cbbc 7633 babc
00000100: 3f1e 85bd e3d4 89bb 18cc 92bb 8ae2 84bc
00000110: ffdb 213d 7612 41bb 8f6a 50bc b5f7 913c
00000120: 947d 3f3d e887 edbc f9d3 3bbd 85f7 24bd
00000130: b8ea d03c b19d 0e3c b2df 8bbd d924 793c
00000140: e4ec 7ebc 6951 f43c 507e 70bc 776f f1bc
00000150: 9116 36bd 5744 52bc c1c5 b63c 6043 28bd
00000160: dcda e93c 66af 483c f658 163d 18a8 023d
00000170: 891d 633c f325 573d 1d6e 15b9 4da8 dcbc
00000180: eb52 0ebc 7ce4 4d3d cbe7 5b3d 2a04 80bd
00000190: 3aa3 8bbd 2cad 5dbd f2fd 8abc 6a06 b3bb
000001a0: 1fb1 69bd 4d8e 41bd 82e7 123d fb91 38bd
000001b0: 5593 1f3d f0a2 b5bc 01a3 94bd 6689 c63b
000001c0: 8939 203c 0bfc fa3b f992 80bd e26a 7cbc
000001d0: 3c23 04bc a8d1 0e3d abe7 05bd f08c 52ba
000001e0: 0d43 ccbc 154f 0ebd 9be4 bf3b 224d b0bc
000001f0: c1dd 083d da11 3dbd 945e 96bd 124e 2f3d
00000200: 182f fbbb 0a4b 57bd 896c 803c 6bf3 b83c
00000210: 2757 7ebd 9939 64bd 6d04 61bc 16ad 73bd
00000220: ce12 35bd 6be8 3e3d b0a2 1bbd b38b ab3c
00000230: 5dd6 d83b c042 21bd 91ac cebc b1cf 48bd
00000240: 7aa3 00bd 67d1 36bc 9a47 2a3d 5d2f 44bd
00000250: f8ba 6f3d 3b4e a3bd 61b4 db3c cc19 0dbd
00000260: 2cfc d5bc 2e1c 83bd e86e 65bb e4a8 ce3c
00000270: a45c bb3c 4283 28bb 6ce1 1fbd 4de2 b6bc
00000280: ef88 2abc 0411 97bc 6b9a 13bd 78d4 9fbb
00000290: 71d3 68bd badd aabd 4c6f 9ebd 9fb7 80bd
000002a0: 405e 9b3b 4351 b03b 52f1 86bd 1918 a8bd
000002b0: c38e f5ba ae51 a6bc 8919 85bd 31ea b93c
000002c0: a29e 753a d0aa 1cbb faac ab3c d26e d4bb
000002d0: 6d25 a1bc 5616 4e3d b13b 553d 4c1e 943c
000002e0: 9920 933c 5753 e13c 6805 5cbd 4ea3 bdbc
000002f0: 9a18 103c b3ca a63c 3ba3 96bc 3941 81bc
00000300: 65cd 823b fc1e 353d a1fc 823c 6025 24bd
00000310: d74b b6bb ab39 21bb 5cb9 2ebc d680 88bd
00000320: 1a4c 24bd 3a05 2dbb 67d9 f43c e661 89bc
00000330: fa3e fabc d120 aabc b8bb 983c 35d5 6c3a
00000340: 7066 6a3d 9f59 093d cf5a 14bd feff f63c
00000350: dfc6 b7bb 304a 5fbb 92eb 4439 cf19 26bd
00000360: 05ca a1bb a8a6 06bc 0001 343c a8da babc
00000370: 8ba4 92bd 41f5 2abd 54de 943c 6bb9 3abd
00000380: 6646 1e3d 307d 42bd 64c7 1c3d 04bd 36bd
00000390: e445 31bc 4eed c9bc 8c9c 89bd e5ff 4dbd
000003a0: 95db d4bc 2252 593d 0000 91bd 70e5 ffbc
000003b0: de9c 5bbd 6479 253d 94bd cf3c 3a45 4cbd
000003c0: 0368 a6bc aff6 5fbc 86ad 2bbd c4d5 103d
000003d0: 9b57 59bd b141 4bbd 2ca0 8cbd cea2 713c
000003e0: 581f b9bb 8120 6bbd 6374 cc3d d209 303d
000003f0: 9421 9f3c 2a99 9a3d 0972 bc3d 2f71 0a3e
-0.068573326 -0.06601154 0.055046935 0.050395053 -0.043186516 -0.031105183 -0.055525478 -0.03485283
0.052627865 0.04234093 -0.061478652 -0.036248773 0.0077212458 0.048723437 -0.01937416 0.029050885
-0.058742628 0.02377506 -0.008494238 -0.0008406358 -0.003447437 -0.031859864 -0.061163336 -0.022208128
0.016495138 0.031830657 -0.028300611 0.03488443 0.026732694 -0.05937616 0.024675896 -0.04627182
-0.025635464 -0.0050250096 0.00026164853 -0.06643459 -0.037525013 0.02618011 -0.055265345 -0.07583848
-0.06443096 0.035685137 0.0177166 -0.032262158 0.020050738 -0.014776428 0.015675247 0.038041025
-0.026971236 -0.008015276 -0.023053732 0.012450985 -0.03557055 0.03859809 0.0294303 -0.05819158
-0.060778987 -0.011589396 0.034348246 0.025486005 -0.008283791 0.00828466 -0.024830833 -0.022729617
-0.064999096 -0.0042062863 -0.0044798963 -0.016221303 0.039516445 -0.0029460466 -0.012720718 0.017818311
0.04675062 -0.02899547 -0.04585645 -0.040275116 0.025502548 0.008704589 -0.06829776 0.015206539
-0.015559409 0.029823976 -0.014678553 -0.029472096 -0.044455115 -0.012833676 0.022311093 -0.04107988
0.028546743 0.0122488495 0.036705934 0.031898588 0.013862022 0.052526426 -0.00014250768 -0.02693572
-0.008686761 0.050266728 0.053687852 -0.06250794 -0.06818242 -0.054120228 -0.016966794 -0.005463411
-0.05705368 -0.04725485 0.035865314 -0.045061093 0.038958866 -0.022172421 -0.07257653 0.0060588596
0.009779342 0.0076594404 -0.06278033 -0.015406342 -0.008065041 0.034867913 -0.03269164 -0.00080318656
-0.024934316 -0.034743387 0.0058561093 -0.021521155 0.033414606 -0.046159603 -0.07342258 0.042799063
-0.007665526 -0.052561797 0.015676754 0.022577008 -0.062094834 -0.055718992 -0.013733965 -0.05949124
-0.044207387 0.04660837 -0.037996948 0.020940637 0.006617351 -0.0393703 -0.02522877 -0.049026195
-0.031405903 -0.011158324 0.04157219 -0.04789673 0.058527917 -0.07973906 0.02681941 -0.03444843
-0.026121221 -0.06401859 -0.0035008732 0.025227018 0.022871323 -0.0025713001 -0.03903334 -0.022324705
-0.010408624 -0.01844073 -0.036035936 -0.004877623 -0.05684227 -0.08343072 -0.07736072 -0.06285023
0.00474146 0.005380781 -0.06588997 -0.08207721 -0.0018734563 -0.02030262 -0.06499011 0.022694679
0.00093696464 -0.0023905523 0.020956505 -0.0064829374 -0.019671166 0.05031427 0.05205888 0.018080853
0.01795988 0.02750556 -0.053716093 -0.023149159 0.008794928 0.020360326 -0.018388381 -0.01577817
0.00399177 0.044219002 0.015989603 -0.040074706 -0.00556324 -0.0024601023 -0.01066431 -0.066651985
-0.04011164 -0.002640082 0.029888822 -0.016770314 -0.030547608 -0.020767601 0.018644199 0.0009034456
0.0572266 0.033532735 -0.036219414 0.030151363 -0.005608424 -0.0034071319 0.00018779773 -0.040551957
-0.0049374127 -0.008218445 0.010986567 -0.022809342 -0.0716029 -0.0417378 0.01817242 -0.045586985
0.038641356 -0.04748267 0.03827609 -0.044613853 -0.010819886 -0.024649289 -0.06719312 -0.05029287
-0.025983611 0.053056844 -0.07080078 -0.031237334 -0.053616397 0.04039897 0.025358953 -0.049870707
-0.020313269 -0.013669654 -0.04191353 0.035360113 -0.053062063 -0.049623195 -0.06866488 0.014748288
-0.0056494884 -0.057404045 0.099831365 0.042978115 0.019425191 0.07548745 0.09201438 0.13519739

1.bias f4 [50]
00000000: 561b c6bc e22d 213e af15 673d 14db e63c
00000010: 76fd e83d 0f14 833c f288 abba e3f4 ac3d
00000020: 135f c63d d683 eebc 7e33 81bd 17e5 de3c
00000030: ead0 973d fa2f 96bd 2080 a43e a4dc 7dbc
00000040: 5c92 a93d eff3 f1bc 5155 43bd adf8 a6bd
00000050: 8673 9b3d e315 d93d 589a 7d3c f3d5 0c3e
00000060: 137a a33d 6e0e 60bd a472 363c ab8d 8c3b
00000070: 6ff2 3bbd 716a 9abc b76a c93d 102e 54bc
00000080: 3789 efbc 9f78 b43d 92f9 7dbd 3f03 c53d
00000090: e713 053e 724b 62bd a6e4 083e 4128 853d
000000a0: 52f3 4d3d e29c 41bd 4735 d63d b757 f43d
000000b0: bfed d93b 164e 2e3d 92d5 ef3d 118f 013e
000000c0: 9e9a ef3c 1122 78bd
-0.024182957 0.15740159 0.056417163 0.028180636 0.11376469 0.016000776 -0.0013087078 0.08445146
0.09686103 -0.029115599 -0.063086495 0.027208848 0.07412894 -0.073333696 0.32129002 -0.015494499
0.08279869 -0.029535262 -0.047688786 -0.081529 0.07590394 0.10599878 0.015478693 0.1375349
0.07982268 -0.05470126 0.011135731 0.004289349 -0.0458855 -0.018849583 0.09834807 -0.012950435
-0.029240234 0.08812069 -0.062005587 0.0961976 0.12995873 -0.05524773 0.13368472 0.065018184
0.050280876 -0.047268756 0.104593806 0.11930793 0.006650656 0.042554937 0.11710657 0.12652232
0.029248532 -0.060579363

3.weight f4 [1, 50]
00000000: 084e 893d 17f9 2fbe 7167 69be 0028 b43d
00000010: dcb8 28be 9c68 193d 1433 223d e8a4 4cbe
00000020: fe2a 52be a0a3 a13d 9e05 543d 7ed4 3b3d
00000030: 5275 93be d1c6 423b fd43 97be 8fbf 9e3d
00000040: 66a5 6bbe 4f81 3c3c f1c9 d83d 2a49 813d
00000050: c3e4 3ebe 3b4c 58be 6f5e d23c 85ed 29be
00000060: ead2 23be 99ad 6e3d ea7b 4bbb 8138 3fbb
00000070: b458 673d 68c1 9a3d 803d 76be eea8 f63b
00000080: 792e f53d 1b44 82be 3d47 d23d 3392 87be
00000090: 3ea4 32be 9377 543d 24a8 60be 3969 84be
000000a0: c742 8bbe 64fd 983c d0f4 88be 7ea6 5bbe
000000b0: e2df 893d adc1 85be 9e4e 5cbe f4c7 52be
000000c0: df88 db3c 0e06 963d
0.067043364 -0.17184864 -0.22793366 0.08796692 -0.16476768 0.03745328 0.039599493 -0.19984782
-0.20524213 0.07892537 0.05176317 0.045856945 -0.28800446 0.0029720555 -0.29544058 0.07751381
-0.23012313 0.011505439 0.10585392 0.06312783 -0.18641953 -0.2112283 0.025679795 -0.16594513
-0.15998426 0.058271024 -0.00310492 -0.0029177966 0.05648108 0.075564206 -0.24046898 0.007527462
0.119717546 -0.25442585 0.10267494 -0.2647873 -0.17445466 0.051871847 -0.2193914 -0.2586153
-0.27199385 0.018675514 -0.26749277 -0.2145023 0.067321554 -0.26124325 -0.21514365 -0.20584089
0.026798664 0.073253736
