model1.pt (torch, 52057 bytes, 3 tensors)

1.weight f4 [50, 250]
000000 de e4 07 3d 25 d2 03 bd 58 9b 14 bd b0 49 ac 3c
       0.03317725 -0.03218283 -0.03628096 0.02103123
000010 1c fa 1d 3d 88 af 5b bd d2 f9 48 3d 80 1d 79 bb
       0.0385686 -0.053634197 0.049066372 -0.0038011968
000020 08 e5 b8 bb fc a4 a3 3c aa 46 2b bd b9 9a 23 bd
       -0.005642537 0.019976132 -0.041815437 -0.039942477
000030 e0 7d 8f 3c 08 89 7f 3d f0 0b 82 bc 2e 19 7a 3d
       0.017516077 0.062386543 -0.015874833 0.06105917
000040 ca cf cd 3b a8 7e b8 3c 90 5c 35 3c e6 b5 e5 bc
       0.006280874 0.022521332 0.011069432 -0.028040837
000050 5e 77 36 3d 9a 6f 20 bd 0e ad a6 bc a0 e9 53 3d
       0.04454743 -0.03916893 -0.02034619 0.051736474
000060 dc d9 ef 3c 82 25 18 3d 4a 79 40 bd da 14 14 bd
       0.029278688 0.037145145 -0.04699067 -0.036152698
000070 60 ae e3 3c c4 10 37 bc 22 40 1f 3c f2 93 e4 3b
       0.02779311 -0.011173431 0.00971988 0.0069756443
000080 b8 8b fb 3c 0e 37 8b bc 81 d5 5b bd 39 50 8b bc
       0.030706272 -0.016994026 -0.05367041 -0.017006027
000090 6f 96 29 3d 40 78 15 bc ec 70 7e bd 98 96 42 bc
       0.04140323 -0.009122908 -0.06211941 -0.011876725
0000a0 90 b0 8f bc 06 e6 82 bc 82 45 e3 bc 1c 66 db 3c
       -0.017540246 -0.015978824 -0.027743105 0.026782088
0000b0 b8 d6 d7 bb c8 99 12 bc d5 91 3d bb 15 fb 14 bd
       -0.0065868758 -0.008947797 -0.0028926034 -0.036372263
0000c0 a4 21 4c bc 30 74 57 3c d0 08 43 bb 06 5d 09 3d
       -0.012459192 0.01315026 -0.0029759891 0.03353598
0000d0 06 f4 0a bd a8 ed 57 bc 80 bb ff 3a e0 6c a9 3b
       -0.033924125 -0.01317922 0.0019510835 0.0051704496
0000e0 31 21 99 3b 31 30 39 bd 38 a2 12 bc ae bf 33 3d
       0.004673146 -0.045211975 -0.008949809 0.043883972
0000f0 94 e0 6a bd c8 ac b3 3c f0 df a1 3b 7b 2c 5c bd
       -0.05734308 0.021932974 0.0049400255 -0.053753357
000100 28 b8 6e 3d 0c e3 1d bd ed 93 72 bd 49 e0 7f bd
       0.058281094 -0.038546607 -0.059223104 -0.062469754
000110 54 97 ad 3c 4c 7a a2 3c 50 b5 bd 3c 5e 85 4e 3d
       0.021190323 0.019833706 0.023157746 0.050420158
000120 ae 22 61 3d 86 b3 a6 bc 1d 6b 60 3d a4 0f e2 bc
       0.054964714 -0.020349275 0.05478965 -0.027595349
000130 e8 2a 45 bd be bc cb bc 92 3f 94 bc 20 d2 e6 3c
       -0.04813662 -0.024870273 -0.018096719 0.028176367
000140 9d 90 8c 3c c8 2b 0e bd da 10 2e 3d 9e ba 81 bc
       0.0171588 -0.03470972 0.04249654 -0.015836056
000150 88 41 e9 3c ac f2 ae 3c 95 ab 11 3d 9c 90 4c 3d
       0.02847363 0.02135595 0.035564024 0.049942598
000160 d4 67 3c 3d ca 8a 4b 3d bd ad 15 bd 5a 1a 55 bc
       0.045997456 0.049692906 -0.036542643 -0.013006771
000170 40 a6 b6 ba 78 0b 94 bc ad d3 7f bd 04 da 7c 3d
       -0.0013935044 -0.018071875 -0.06245773 0.061731353
000180 9e 86 6e 3d 5c df db 3c 31 b0 47 bd bc fd f5 3c
       0.05823385 0.026839904 -0.048752014 0.030028217
000190 d8 39 f1 3c 40 ab ae 3c 74 53 40 bc 10 8d fc bc
       0.029446527 0.021321893 -0.011738647 -0.030828983
0001a0 8c 7d eb bc fe 55 57 bd b0 bc 7e 3c a8 94 13 3d
       -0.028746389 -0.052572243 0.015547916 0.03603044
0001b0 64 4e 25 bc 1e db 5f bd 28 cd 5c 3b 88 f9 0a 3d
       -0.010089491 -0.054652326 0.0033691619 0.033929378
0001c0 18 ba f3 3c ec cf 5d 3d fc 52 20 bc a8 40 f1 bc
       0.029751822 0.054153368 -0.00978541 -0.029449776
0001d0 2c d3 82 3d 8e 1a 70 bd 2c 60 7d 3d 08 93 53 bd
       0.06387934 -0.058619075 0.061859295 -0.05165389
0001e0 8e bd e6 bc 73 12 3f bd d8 20 ff 3c 70 8d 55 3d
       -0.028166559 -0.046648454 0.03114359 0.05213684
0001f0 d4 69 4c 3d 0c 0f 00 bd 63 92 13 bc 14 e8 b6 bc
       0.049905613 -0.03126435 -0.009007069 -0.02232746
000200 d8 bf 46 bd e0 b8 c8 3b 66 08 6e bd 4b 27 76 3d
       -0.0485228 0.0061255544 -0.058113478 0.060096066
000210 b8 ce 71 bc c8 c6 7b 3c 8a d6 3e 3d 04 2e d9 3c
       -0.014758758 0.015367217 0.04659132 0.0265112
000220 e8 48 48 3c d8 c9 25 3d 00 48 af b8 80 6d 34 bb
       0.012224413 0.040475696 -8.358061e-05 -0.0027531087
000230 a9 96 69 bd ba 1b d0 bc 3e bf b7 bc e9 38 81 bd
       -0.057028446 -0.025403846 -0.022430059 -0.06309683
000240 e3 f8 0e bd 70 59 c3 3b 42 6d 83 3d 4c 4f 33 3d
       -0.034905326 0.0059615895 0.06417324 0.043776795
000250 82 04 1a bd 86 30 08 3d 12 41 2b bd 86 97 70 bd
       -0.037601955 0.0332494 -0.041810103 -0.058738254
000260 8c 82 66 bd 26 db 83 bc 06 5d 3f bd fe 7b 00 3d
       -0.056276843 -0.016095709 -0.046719573 0.03136825
000270 4f ad 13 3c 80 67 12 3b e6 37 3d 3d d0 75 80 3c
       0.009013488 0.0022339523 0.046195887 0.015681177
000280 a9 6d 8f 3c a9 9b 7e bd 70 54 0d 3d d0 ed b2 bc
       0.017508345 -0.062160168 0.034504354 -0.021841913
000290 6c 8d a0 3c fb 69 14 bd 19 fe d6 3c 0c 29 3b 3d
       0.019598685 -0.036233883 0.02624421 0.045693442
0002a0 6c 55 d8 bc ee f6 32 3d 80 0b 51 bc fb 51 bb 3c
       -0.02640792 0.04369252 -0.0127590895 0.02286624
0002b0 10 93 ab 3c ba a3 26 bd 3c 97 51 3d ec 35 50 3d
       0.020944148 -0.040683486 0.05116962 0.050832674
0002c0 76 db 77 bd ec 86 b8 3c c2 de a4 bc e0 bd 68 3b
       -0.06051203 0.022525273 -0.02012575 0.0035513565
0002d0 dc bb 75 bd 8c 3c 90 3c 34 ca 95 bc 6f db 6a bd
       -0.05999361 0.017606996 -0.018284895 -0.057338174
0002e0 88 ef 71 3c ac 95 68 bc 15 02 c4 3c 40 39 c3 3b
       0.014766581 -0.014195841 0.023926774 0.0059577525
0002f0 14 89 46 3d 9c b4 18 bc 33 f4 07 bd bd 20 4a 3d
       0.04847057 -0.009320404 -0.03319187 0.049347628
000300 a8 7a a3 bc 18 25 8e bb 4e 5a 31 bd 44 7b e7 3c
       -0.019955948 -0.004337918 -0.043299012 0.02825702
000310 fe 8b c4 bb 40 47 97 3a 8e 79 e6 bc a0 4e d0 bc
       -0.0059981337 0.001154162 -0.028134134 -0.025428116
000320 71 38 69 3d 10 62 7f bd 56 07 36 3d 70 73 03 3d
       0.056938592 -0.06234938 0.04444059 0.03209251
000330 a8 4d 2a bd c0 97 28 3b eb 3f 45 bd 30 b6 20 3d
       -0.041577965 0.0025725216 -0.04815666 0.039236248
000340 fe 18 88 bc c9 73 8d 3c 44 d7 c1 bc 6a d9 15 3d
       -0.01661348 0.017267125 -0.023662217 0.036584295
000350 04 7f 36 3d c2 66 b4 bc 50 5a 08 3c ca 04 09 3d
       0.044554725 -0.022021655 0.008322313 0.033451833
000360 ad 81 b2 bc fa ae 8d bc 10 64 e4 3b 96 ea 69 3d
       -0.02179035 -0.01729535 0.006969936 0.057108484
000370 6a d1 4a 3d 7b 96 e1 3a 29 7e 12 bd 74 81 0c 3d
       0.04951612 0.0017210984 -0.035764847 0.034303144
000380 88 9e 7b bd 03 ca 0d bd 68 c0 44 3d d0 ce 7d bc
       -0.061430484 -0.03461648 0.048035055 -0.0154912025
000390 4e 1e 20 3d 54 43 7f bc 02 60 f9 bc e6 36 58 3d
       0.0390914 -0.015580017 -0.030441288 0.05278673
0003a0 e4 b9 87 bc c0 78 ba 3a ce 0d 7b bd 6a 18 f1 bc
       -0.016568132 0.001422666 -0.061292462 -0.029430587
0003b0 82 63 c8 bc bc 36 ed 3c ce 48 69 bd d9 20 5e bd
       -0.024461512 0.028956763 -0.056954198 -0.054230545
0003c0 ae 11 5e bd 42 1f 57 bd 5c d9 07 3d d8 5f 62 3d
       -0.05421608 -0.052520044 0.033166274 0.055267185
0003d0 1a 47 3a 3d d8 e8 af bb 99 0d 53 bd 66 d7 22 3d
       0.045477964 -0.0053683333 -0.05152664 0.0397562
0003e0 b8 ea 83 bb 78 7e 31 3c 10 ec 23 3d ad 8f 10 bd
       -0.0040257834 0.010833375 0.04002005 -0.03529327
0003f0 84 35 07 3d 68 3f 32 bc 3f 13 60 bd f4 58 4f bc
       0.03301002 -0.010879375 -0.054705855 -0.012655485

1.bias f4 [50]
000000 c5 5d ab 3c c5 db e9 3c 93 e2 73 bc a0 b4 4f 3d
       0.020918736 0.028547177 -0.0148855625 0.050709367
000010 32 dc 84 3d a1 41 6f bc d0 8e de 3b 9c 6c 77 bc
       0.064873114 -0.0146030495 0.006791927 -0.015101578
000020 22 11 6f bd b7 77 30 bc c0 7f e9 3b dc 7c 4e bd
       -0.05836595 -0.01077073 0.0071258247 -0.050412044
000030 4f c2 3f 3d fa 7e 53 bd b0 1e f6 bc 06 db df 3b
       0.046816166 -0.051634766 -0.03004393 0.0068315296
000040 67 1e 15 bd 30 44 1c 3c bb 13 07 3d b3 19 80 bd
       -0.036405947 0.009537742 0.0329778 -0.06254902
000050 15 69 fa 3a 9f b6 6b 3d 2e 2b 0f bd 7e 1f 23 bd
       0.0019104803 0.057547208 -0.03495329 -0.039824955
000060 ba ef 79 3d 56 a3 04 3d 53 7a a0 3b 50 c0 ca bc
       0.061019637 0.03238233 0.0048973947 -0.024749905
000070 8c 21 67 3d 29 df 6a 3d 9f f2 69 bd 44 d2 f6 3c
       0.056428477 0.05734173 -0.057116147 0.03012956
000080 58 c3 68 3d 1a e2 7b bd 90 55 1d bd 75 5f 2c 3d
       0.05682692 -0.061494924 -0.038411677 0.042083222
000090 80 eb 34 bd 33 7e 01 bd c0 13 d4 3a 8b 93 74 3d
       -0.044169903 -0.031614494 0.0016180202 0.05971102
0000a0 40 b6 3c bb a1 cd f5 3c d8 38 6f 3d 33 61 e1 bc
       -0.0028795153 0.030005278 0.05840382 -0.027512169
0000b0 6a a1 64 3d d2 7f 64 3d ec c6 24 3d b7 ac 1d 3d
       0.055818 0.05578596 0.04022877 0.03849479
0000c0 eb fb 8b ba 4c 0c 46 bd
       -0.0010679936 -0.04835157

3.weight f4 [1, 50]
000000 cf e1 83 bc f6 5e 02 3e c8 a2 56 bd 74 94 90 bc
       -0.016098885 0.12731537 -0.052401334 -0.017648913
000010 fa d2 ec bd 79 99 56 3d 58 ed 9d 3d 50 fd 7b 3c
       -0.11563678 0.052392457 0.07711285 0.015380219
000020 e5 a4 06 3e d7 70 10 be 80 73 4f bb 7c f9 96 3d
       0.1314884 -0.14105545 -0.0031654537 0.07371804
000030 6d 78 94 bd bc 3b ee 3d ec 0b ce 3d 29 ee 4c 3d
       -0.07249532 0.11632487 0.10060868 0.050031815
000040 4f 9f 4e bd c2 3b d7 3c 19 08 fd 3c 6d a8 2b 3d
       -0.050444897 0.026273612 0.03088765 0.04190867
000050 c4 0b f9 3d 14 51 9e 3d 02 07 fb bd 7e fd de 3d
       0.12160447 0.07730308 -0.12257196 0.108881935
000060 e6 2e b7 3d 4d 65 cc bc 7e d4 2b bd 60 0a 46 3c
       0.08944492 -0.024950648 -0.041950695 0.0120874345
000070 14 e3 91 3d 29 e5 30 bd f2 d5 8c 3c 76 0b 9d bb
       0.0712339 -0.043187294 0.01719186 -0.004792626
000080 d2 fd 86 bd 76 17 82 3d 15 c2 0c be 0d b4 39 3d
       -0.06591381 0.06352131 -0.13745911 0.045337725
000090 80 18 72 3b 94 ca 9c bd fe ac 06 bd e5 d2 29 3d
       0.0036940873 -0.07655826 -0.032879822 0.04146089
0000a0 d8 4b b2 3d 15 45 de 3a 20 15 6f bd 06 cd d7 bd
       0.08705872 0.0016957844 -0.058369756 -0.10537152
0000b0 a8 6e 05 be 81 86 10 be 0a 98 ff 3d 40 c7 81 3d
       -0.13030493 -0.14113809 0.12480171 0.06336832
0000c0 05 3d ee 3d 4c f3 86 bc
       0.11632732 -0.016473435
