model_test_trained.pt (torch, 52129 bytes, 3 tensors)

1.weight f4 [50, 250]
0.034177195 -0.032182354 -0.03628096 0.02103123 0.0385686 -0.0526359 0.049068492 -0.0038011968
-0.005642537 0.019976132 -0.041815437 -0.039972816 0.017516077 0.062386543 -0.015874833 0.06105917
0.0063086497 0.022521332 0.011069432 -0.028040837 0.04454743 -0.03916892 -0.02034619 0.051736474
0.029278688 0.037145145 -0.046992723 -0.036152698 0.02779311 -0.011173431 0.008719929 0.0069574467
0.030706272 -0.016994026 -0.05367041 -0.018004064 0.041403215 -0.009122908 -0.06211941 -0.011876725
-0.017540246 -0.014984591 -0.027743105 0.026782088 -0.0065868758 -0.008947797 -0.003887955 -0.036372263
-0.012459192 0.01315026 -0.001975992 0.032742217 -0.033924125 -0.01317922 0.0019510835 0.0051704496
0.0036733001 -0.045211975 -0.008949809 0.04488397 -0.05734308 0.021928044 0.0049400255 -0.053753357
0.058281094 -0.038546607 -0.059218314 -0.062469754 0.021190323 0.019833706 0.023157746 0.05141957
0.054964714 -0.020349275 0.053789653 -0.027595349 -0.04813662 -0.024870273 -0.018096719 0.028176367
0.016158804 -0.033914417 0.04249654 -0.015836056 0.02847363 0.022355894 0.03556399 0.049942598
0.045997456 0.049692906 -0.03754264 -0.01321068 -0.0013935044 -0.018071875 -0.06145773 0.061731353
0.058228906 0.026839904 -0.048752014 0.030028217 0.030446524 0.021511475 -0.011738647 -0.030828983
-0.028746389 -0.052572243 0.01554842 0.03603044 -0.010089491 -0.054652326 0.0023692101 0.03392884
0.029751822 0.054153368 -0.00978541 -0.029449776 0.06388132 -0.058619075 0.061859295 -0.05165389
-0.028166559 -0.046648543 0.03114359 0.05213684 0.049905613 -0.03126435 -0.010006901 -0.02232746
-0.0485228 0.0061255544 -0.058113478 0.06009599 -0.014758758 0.015367217 0.04659132 0.0265112
0.012224255 0.040475696 -8.358061e-05 -0.0027531087 -0.057028446 -0.02440386 -0.022430059 -0.06309683
-0.035905324 0.0059615895 0.064201035 0.043776795 -0.037601955 0.0332494 -0.041810103 -0.05875639
-0.056276843 -0.016095709 -0.046719573 0.03136825 0.009015608 0.0022339523 0.046195887 0.015681177
0.01650896 -0.062165935 0.034504354 -0.021841913 0.019598685 -0.036233883 0.0262305 0.045693442
-0.02640792 0.04369252 -0.0127590895 0.022861147 0.020944148 -0.040683486 0.05116962 0.050832674
-0.060507152 0.022525273 -0.02012575 0.0035513565 -0.05999361 0.01860681 -0.018284895 -0.057338174
0.014766581 -0.014195841 0.023896411 0.0059577525 0.04847057 -0.009320404 -0.03319187 0.04934508
-0.019955948 -0.004337918 -0.043299012 0.02825702 -0.005997968 0.001154162 -0.028134134 -0.025428116
0.055938594 -0.061553303 0.04444059 0.03209251 -0.041577965 0.0025725216 -0.04717491 0.039236248
-0.01661348 0.016267128 -0.023662217 0.035588942 0.044554725 -0.022021655 0.008322313 0.03445183
-0.022595787 -0.01729535 0.006969936 0.057108484 0.05051607 0.0017231633 -0.035764847 0.034303144
-0.061430484 -0.03461648 0.048035003 -0.0154912025 0.0390914 -0.015580017 -0.030441288 0.052786037
-0.016568132 0.001422666 -0.061292462 -0.029430587 -0.025433704 0.028956763 -0.056954198 -0.053230546
-0.05421608 -0.05252566 0.033166274 0.055267185 0.045477964 -0.0053683333 -0.051509988 0.0397562
-0.0040257834 0.010833375 0.039020054 -0.035293326 0.03301002 -0.010879375 -0.054705855 -0.013655284
00000000: 63fd 0b3d a5d1 03bd 589b 14bd b049 ac3c
00000010: 1cfa 1d3d be98 57bd 0bfc 483d 801d 79bb
00000020: 08e5 b8bb fca4 a33c aa46 2bbd 89ba 23bd
00000030: e07d 8f3c 0889 7f3d f00b 82bc 2e19 7a3d
00000040: cab8 ce3b a87e b83c 905c 353c e6b5 e5bc
00000050: 5e77 363d 976f 20bd 0ead a6bc a0e9 533d
00000060: dcd9 ef3c 8225 183d 717b 40bd da14 14bd
00000070: 60ae e33c c410 37bc 08de 0e3c 4bfb e33b
00000080: b88b fb3c 0e37 8bbc 81d5 5bbd 427d 93bc
00000090: 6b96 293d 4078 15bc ec70 7ebd 9896 42bc
000000a0: 90b0 8fbc ee81 75bc 8245 e3bc 1c66 db3c
000000b0: b8d6 d7bb c899 12bc 10cd 7ebb 15fb 14bd
000000c0: a421 4cbc 3074 573c a57f 01bb b41c 063d
000000d0: 06f4 0abd a8ed 57bc 80bb ff3a e06c a93b
000000e0: c0bb 703b 3130 39bd 38a2 12bc 41d8 373d
000000f0: 94e0 6abd 71a2 b33c f0df a13b 7b2c 5cbd
00000100: 28b8 6e3d 0ce3 1dbd e78e 72bd 49e0 7fbd
00000110: 5497 ad3c 4c7a a23c 50b5 bd3c 549d 523d
00000120: ae22 613d 86b3 a6bc 8a52 5c3d a40f e2bc
00000130: e82a 45bd bebc cbbc 923f 94bc 20d2 e63c
00000140: 785f 843c d8e9 0abd da10 2e3d 9eba 81bc
00000150: 8841 e93c b523 b73c 8cab 113d 9c90 4c3d
00000160: d467 3c3d ca8a 4b3d 50c6 19bd 9c71 58bc
00000170: 40a6 b6ba 780b 94bc 1abb 7bbd 04da 7c3d
00000180: 6f81 6e3d 5cdf db3c 31b0 47bd bcfd f53c
00000190: fd6a f93c d538 b03c 7453 40bc 108d fcbc
000001a0: 8c7d ebbc fe55 57bd cdbe 7e3c a894 133d
000001b0: 644e 25bc 1edb 5fbd c044 1b3b f8f8 0a3d
000001c0: 18ba f33c eccf 5d3d fc52 20bc a840 f1bc
000001d0: 36d4 823d 8e1a 70bd 2c60 7d3d 0893 53bd
000001e0: 8ebd e6bc 8b12 3fbd d820 ff3c 708d 553d
000001f0: d469 4c3d 0c0f 00bd fcf3 23bc 14e8 b6bc
00000200: d8bf 46bd e0b8 c83b 6608 6ebd 3627 763d
00000210: b8ce 71bc c8c6 7b3c 8ad6 3e3d 042e d93c
00000220: 3e48 483c d8c9 253d 0048 afb8 806d 34bb
00000230: a996 69bd 9bea c7bc 3ebf b7bc e938 81bd
00000240: 7611 13bd 7059 c33b d57b 833d 4c4f 333d
00000250: 8204 1abd 8630 083d 1241 2bbd 8aaa 70bd
00000260: 8c82 66bd 26db 83bc 065d 3fbd fe7b 003d
00000270: 33b6 133c 8067 123b e637 3d3d d075 803c
00000280: cc3d 873c b5a1 7ebd 7054 0d3d d0ed b2bc
00000290: 6c8d a03c fb69 14bd 58e1 d63c 0c29 3b3d
000002a0: 6c55 d8bc eef6 323d 800b 51bc 4d47 bb3c
000002b0: 1093 ab3c baa3 26bd 3c97 513d ec35 503d
000002c0: 59d6 77bd ec86 b83c c2de a4bc e0bd 683b
000002d0: dcbb 75bd 4f6d 983c 34ca 95bc 6fdb 6abd
000002e0: 88ef 713c ac95 68bc 68c2 c33c 4039 c33b
000002f0: 1489 463d 9cb4 18bc 33f4 07bd 111e 4a3d
00000300: a87a a3bc 1825 8ebb 4e5a 31bd 447b e73c
00000310: 9a8a c4bb 4047 973a 8e79 e6bc a04e d0bc
00000320: de1f 653d 511f 7cbd 5607 363d 7073 033d
00000330: a84d 2abd c097 283b 7a3a 41bd 30b6 203d
00000340: fe18 88bc a442 853c 44d7 c1bc b6c5 113d
00000350: 047f 363d c266 b4bc 505a 083c 5d1d 0d3d
00000360: cd1a b9bc faae 8dbc 1064 e43b 96ea 693d
00000370: f0e9 4e3d c4db e13a 297e 12bd 7481 0c3d
00000380: 889e 7bbd 03ca 0dbd 5ac0 443d d0ce 7dbc
00000390: 4e1e 203d 5443 7fbc 0260 f9bc 2c36 583d
000003a0: e4b9 87bc c078 ba3a ce0d 7bbd 6a18 f1bc
000003b0: 585a d0bc bc36 ed3c ce48 69bd 4608 5abd
000003c0: ae11 5ebd 2525 57bd 5cd9 073d d85f 623d
000003d0: 1a47 3a3d d8e8 afbb 23fc 52bd 66d7 223d
000003e0: b8ea 83bb 787e 313c 7ed3 1f3d bc8f 10bd
000003f0: 8435 073d 683f 32bc 3f13 60bd 6aba 5fbc

1.bias f4 [50]
0.020918736 0.028547177 -0.0148855625 0.050709367 0.06387311 -0.0146030495 0.0057919277 -0.015101578
-0.05736595 -0.0097707305 0.0071258247 -0.051412042 0.046816166 -0.051634766 -0.02904393 0.0058315303
-0.037405945 0.009537742 0.0329778 -0.06254902 0.0019104803 0.057547208 -0.03495329 -0.039824955
0.061019637 0.03238233 0.0038973957 -0.024749905 0.05542848 0.05734173 -0.057116147 0.03012956
0.05682692 -0.061494924 -0.03741168 0.041083224 -0.04516989 -0.031614494 0.0016180202 0.058711022
-0.0038795148 0.029005302 0.05840382 -0.028512169 0.055818 0.054785963 0.04022877 0.037494794
-0.0010679936 -0.04835157
00000000: c55d ab3c c5db e93c 93e2 73bc a0b4 4f3d
00000010: e8cf 823d a141 6fbc 36ca bd3b 9c6c 77bc
00000020: 8ff8 6abd 6a15 20bc c07f e93b 6f95 52bd
00000030: 4fc2 3f3d fa7e 53bd 89ed edbc 6c16 bf3b
00000040: fa36 19bd 3044 1c3c bb13 073d b319 80bd
00000050: 1569 fa3a 9fb6 6b3d 2e2b 0fbd 7e1f 23bd
00000060: baef 793d 56a3 043d 736b 7f3b 50c0 cabc
00000070: f908 633d 29df 6a3d 9ff2 69bd 44d2 f63c
00000080: 58c3 683d 1ae2 7bbd fd3c 19bd e246 283d
00000090: 1004 39bd 337e 01bd c013 d43a f87a 703d
000000a0: 753f 7ebb 879c ed3c d838 6f3d 5a92 e9bc
000000b0: 6aa1 643d 3f67 603d ecc6 243d 2494 193d
000000c0: ebfb 8bba 4c0c 46bd

3.weight f4 [1, 50]
-0.016098883 0.12731537 -0.052401334 -0.017648915 -0.11463678 0.052392457 0.07611285 0.015380219
0.1324884 -0.14205545 -0.0031654537 0.07271804 -0.07249533 0.11632487 0.10160868 0.049031816
-0.0494449 0.026273612 0.03088765 0.04190867 0.12160447 0.07730308 -0.12257196 0.108881935
0.08944492 -0.024950648 -0.040950697 0.0120874345 0.0702339 -0.043187294 0.01719186 -0.0047926256
-0.06591381 0.06352131 -0.13845912 0.044337727 0.0026940908 -0.07655826 -0.032879822 0.040460892
0.086058736 0.00069578516 -0.058369756 -0.10437152 -0.13030493 -0.14013809 0.12480172 0.062368322
0.11632732 -0.016473435
00000000: cee1 83bc f65e 023e c8a2 56bd 7594 90bc
00000010: b0c6 eabd 7999 563d 0ee1 9b3d 50fd 7b3c
00000020: 0aab 073e fc76 11be 8073 4fbb 32ed 943d
00000030: 6e78 94bd bc3b ee3d 3618 d03d 96d5 483d
00000040: bc86 4abd c23b d73c 1908 fd3c 6da8 2b3d
00000050: c40b f93d 1451 9e3d 0207 fbbd 7efd de3d
00000060: e62e b73d 4d65 ccbc ebbb 27bd 600a 463c
00000070: cad6 8f3d 29e5 30bd f2d5 8c3c 750b 9dbb
00000080: d2fd 86bd 7617 823d 3ac8 0dbe 7a9b 353d
00000090: 588f 303b 94ca 9cbd feac 06bd 52ba 253d
000000a0: 903f b03d 5a65 363a 2015 6fbd bcc0 d5bd
000000b0: a86e 05be 5c80 0fbe 0b98 ff3d ed75 7f3d
000000c0: 053d ee3d 4cf3 86bc
