model.pt (torch, 6407 bytes, 5 tensors)

1.weight f4 [30, 25]
0	0x3e0679a1	0.13132335
1	0x3dee67d6	0.11640899
2	0xbe3c0922	-0.18362859
3	0xbe36495a	-0.17801419
4	0xbe4588f0	-0.19290519
5	0x3e04dc63	0.12974696
6	0x3dd9a52e	0.10627209
7	0x3b9b8d00	0.004747033
8	0xbe393393	-0.1808608
9	0xbe0e6615	-0.13906129
10	0x3d0156d1	0.031576935
11	0x3dac2d7c	0.08407113
12	0x3d8b7c12	0.06810774
13	0xbdaea5f0	-0.08527744
14	0x3d9dfeae	0.07714592
15	0xbe029ce0	-0.12755156
16	0x3dcae5f7	0.099071436
17	0x3e20494d	0.15652962
18	0xbe4866af	-0.1957042
19	0xbd2caae8	-0.042155176
20	0xbe16a17e	-0.14710042
21	0xbdaeedc7	-0.08541446
22	0xbdf39c07	-0.11894994
23	0x3dd77662	0.105206266
24	0x3e4db49d	0.2008843
25	0x3d567b1a	0.052363493
26	0x3b75cdda	0.003750673
27	0xbd9b2873	-0.075760745
28	0xbe361030	-0.17779613
29	0xbe2ff945	-0.17184933
30	0x3d588204	0.052858368
31	0x3e31db0c	0.17368716
32	0xbdc4175d	-0.09574769
33	0xbdd90557	-0.105967216
34	0x3e295e9d	0.16539998
35	0x3d2214ab	0.03957049
36	0x3ddc7700	0.10764885
37	0xbe4800e2	-0.19531587
38	0xbdb558a3	-0.08854797
39	0xbdb0f3b3	-0.08640232
40	0x3db68062	0.08911206
41	0xbdb54af3	-0.08852186
42	0xbe34ae78	-0.1764468
43	0xbe12a197	-0.14319454
44	0xbe4c087d	-0.19925113
45	0x3e460286	0.193369
46	0x3d27baa5	0.040949482
47	0xbd069c68	-0.032864004
48	0xbd9f62e3	-0.07782533
49	0x3d7bda72	0.061487623
50	0xbc5a7bdd	-0.013335195
51	0x3e026db8	0.12737167
52	0x3e1358d3	0.14389353
53	0x3e337b75	0.17527564
54	0x3c065ead	0.008201283
55	0x3e0e2f78	0.13885295
56	0x3db5f52b	0.08884653
57	0x3c869050	0.016426235
58	0xbd886e20	-0.0666163
59	0xbdf60ed3	-0.12014546
60	0x3e24fa66	0.16111144
61	0x3d3cac61	0.04606283
62	0x3d855a06	0.06511311
63	0x3da25c39	0.07927746
64	0x3dce0cb2	0.10061015
65	0xbb3e3680	-0.0029024184
66	0xbdf8141b	-0.1211321
67	0x3e25cb61	0.16190864
68	0xbe03cdf6	-0.12871537
69	0xbc997a30	-0.018735021
70	0xbcacfe68	-0.021117404
71	0x3cf98193	0.030457294
72	0x3d3bf368	0.045886427
73	0x3da798a2	0.08183409
74	0xbd4d6366	-0.05014362
75	0x3e28c315	0.16480668
76	0x3e0ef0ae	0.13959
77	0xbd5df3c0	-0.054187536
78	0xbe1f1c4d	-0.1553814
79	0xbd914b35	-0.07094423
80	0x3dfa9279	0.12234969
81	0xbdaf409f	-0.08557247
82	0xbcd2a950	-0.0257155
83	0xbe07ab4a	-0.13248935
84	0x3db5f12e	0.08883892
85	0xbd8765fc	-0.06611249
86	0x3d05aadb	0.032633644
87	0xbe32bc48	-0.17454636
88	0x3e0261a3	0.12732558
89	0x3e19fe82	0.15038493
90	0x3da968c2	0.08271934
91	0xbe4a0176	-0.1972712
92	0x3dc5e7de	0.09663366
93	0x3d220c5d	0.03956257
94	0xbde3bf03	-0.11120417
95	0xbc8d1c55	-0.017225424
96	0x3e39794a	0.18112674
97	0xbd56c00c	-0.052429244
98	0xbd8959d4	-0.067065865
99	0x3e1a8c45	0.15092571
100	0x3db2f582	0.08738233
101	0x3d9b5f66	0.07586555
102	0xbe298818	-0.16555822
103	0x3e3aff03	0.18261342
104	0x3e306ebb	0.1722974
105	0xbdb1ea40	-0.08687258
106	0x3e21a191	0.15784289
107	0xbd389be8	-0.04507056
108	0xbe2e3e45	-0.17015941
109	0xbd874464	-0.06604841
110	0xbe199968	-0.14999926
111	0x3e3a6a8d	0.18204708
112	0xbdb03ff0	-0.08605945
113	0x3c1d4fb0	0.0096015185
114	0x3d383234	0.044969752
115	0xbd9a8370	-0.07544601
116	0xbe343c1a	-0.17601052
117	0xbe4b1a58	-0.19834268
118	0x3e12680b	0.14297502
119	0x3de6c4e2	0.11268021
120	0xbdac84d0	-0.084237695
121	0xbd814bb6	-0.06313269
122	0x3df1388e	0.11778365
123	0xbe282002	-0.1641846
124	0xbe0a900d	-0.13531514
125	0xbd21563a	-0.039388873
126	0x3e352a82	0.17691997
127	0x3c4d3680	0.012525201
128	0xbe124172	-0.14282778
129	0x3ba6aac6	0.0050862757
130	0x3cb635ea	0.022242505
131	0x3e17df02	0.14831164
132	0x3da9fe92	0.083005086
133	0x3db900d8	0.09033364
134	0x3e0fcbf3	0.14042644
135	0xbdfb81d9	-0.12280626
136	0x3c99613d	0.018723125
137	0xbccd3680	-0.025050402
138	0x3d9b5fc0	0.07586622
139	0xbd16987b	-0.03676651
140	0x3e1da9c1	0.15396787
141	0x3e27e0cf	0.16394351
142	0xbdcab743	-0.09898236
143	0x3cfec643	0.031100398
144	0xbe23fc30	-0.1601417
145	0x3d777f79	0.0604243
146	0x3c1bc7cd	0.009508085
147	0xbe0e3792	-0.13888386
148	0xbde21067	-0.11038285
149	0x3d5a94d6	0.053364597
150	0x39152c00	0.00014226139
151	0xbe1113b2	-0.1416767
152	0x3c3271d0	0.010891393
153	0x3ccb2228	0.02479656
154	0xbd88e03a	-0.06683393
155	0x3e4b22af	0.1983745
156	0x3e428c9f	0.18998955
157	0x3ca5adf0	0.020224541
158	0x3dd50922	0.104021326
159	0x3d951ca6	0.07280855
160	0x3d114574	0.035466626
161	0x3e291b01	0.16514207
162	0x3e074379	0.13209333
163	0x3dceb292	0.10092653
164	0xbd64b498	-0.05583629
165	0xbe47832b	-0.1948363
166	0x3c910240	0.017701268
167	0x3d6888f4	0.056771234
168	0xbdf3005d	-0.11865304
169	0x3dbacb92	0.09120859
170	0xbe20d2bd	-0.1570539
171	0x3e2a6f39	0.1664399
172	0xbe396e27	-0.18108426
173	0xbd9b293d	-0.07576225
174	0xbd854a5a	-0.06508322
175	0x3dd88f1d	0.10574172
176	0xbe00959e	-0.12557074
177	0xbda84b4a	-0.08217485
178	0x3e15ad99	0.14617004
179	0x3dfba5a4	0.12287453
180	0x3e44d48e	0.19221708
181	0x3e3b4b97	0.18290554
182	0x3dfd6892	0.12373461
183	0x3d566877	0.05234572
184	0x3e4bbff5	0.19897445
185	0x3ca47e72	0.020079825
186	0xbb9cbb4b	-0.0047830692
187	0x3e185fc9	0.14880289
188	0x3da5ff55	0.08105341
189	0xbdbd0853	-0.09230103
190	0xbe16f645	-0.14742382
191	0x3d8bcb5c	0.06825897
192	0x3e168701	0.14699937
193	0x3ca73570	0.020411223
194	0xbe360553	-0.17775469
195	0x3e14d631	0.14534833
196	0x3e4f255c	0.20229095
197	0x3e090c73	0.13383655
198	0xbcf36e98	-0.029715821
199	0xbe3c1de2	-0.18370774
200	0xbe1fda7c	-0.15610689
201	0x3dc9b862	0.09849621
202	0x3e02ebb1	0.12785222
203	0xbe1e5382	-0.15461543
204	0xbddd5a71	-0.10808266
205	0xbe40e30a	-0.18836609
206	0x3e23094d	0.15921517
207	0xbd8f80e0	-0.07007003
208	0x3e4122f0	0.18860984
209	0xbda9772d	-0.08274684
210	0x3df85265	0.121250905
211	0x3e15a70b	0.14614503
212	0x3cf89bf0	0.030347794
213	0x3e2d2b90	0.16911149
214	0x3d8b29a8	0.06795055
215	0x3c8e8580	0.017397642
216	0xbe108e87	-0.1411687
217	0xbe1fb30a	-0.15595642
218	0xbd4e5119	-0.05037031
219	0xbd7bbad4	-0.06145747
220	0xbc38cf4c	-0.011279892
221	0x3de29eab	0.1106542
222	0x3d3420b8	0.043976516
223	0xbd9212da	-0.07132502
224	0xbdf3ba02	-0.119007125
225	0x3db93190	0.090426564
226	0xbe4a2e6e	-0.19744274
227	0xbdd4e93a	-0.10396047
228	0x3d5671a4	0.05235447
229	0xbe05b2c0	-0.13056469
230	0x3d9219e2	0.07133843
231	0x3e1a1aeb	0.15049331
232	0xbdd3bf5d	-0.10339234
233	0xbe35a082	-0.1773701
234	0xbd98fad0	-0.07469714
235	0xbcc70eda	-0.024299074
236	0x3d560945	0.052254934
237	0x3e0d5ab9	0.13804139
238	0xbe319bb0	-0.17344546
239	0x3e1cf481	0.15327646
240	0xbddd3e93	-0.10802951
241	0x3dcc5f9a	0.09979172
242	0xbe272940	-0.1632433
243	0x3d9914c6	0.07474665
244	0x3d10fa08	0.0353947
245	0xbdcaceaa	-0.09902699
246	0xbd3122fe	-0.04324626
247	0xbdd6c7b7	-0.10487311
248	0xbd33e048	-0.043915063
249	0x3e1af4d1	0.15132453
250	0x3de09c91	0.10967363
251	0x3d650e91	0.055922095
252	0xbcbd21f0	-0.023087472
253	0x3cef4ba8	0.02921088
254	0xbdc513d0	-0.096229196
255	0xbe10a06e	-0.14123699

1.bias f4 [30]
0	0x3dbbe7ca	0.0917507
1	0x3e2b8800	0.16751099
2	0xbd8e4d0e	-0.06948291
3	0x3df749ed	0.12074647
4	0xbe4438ea	-0.19162336
5	0x3db075e4	0.08616236
6	0xbdd0470d	-0.10169802
7	0xbd9cd7fc	-0.07658383
8	0x3c9f7f66	0.019469928
9	0xbda6fa3c	-0.08153197
10	0x3e11decc	0.14245147
11	0x3e3c2fe8	0.1837765
12	0x3e01a626	0.12661037
13	0x3da38f70	0.07986343
14	0xbd8b5830	-0.0680393
15	0x3e2e4119	0.1701702
16	0xbd3e6ed4	-0.046492413
17	0xbdec4fb1	-0.115386374
18	0x3df826b7	0.12116759
19	0x3dde6a21	0.10860086
20	0x3dbf3bb9	0.09337563
21	0xbe18e6f0	-0.14931846
22	0x3cadfeb5	0.021239618
23	0xbdcef332	-0.101049796
24	0xbe2f741a	-0.17134133
25	0xbe06969b	-0.13143389
26	0x3e37208a	0.17883506
27	0xba8a223d	-0.0010538768
28	0xbdcb77b7	-0.09934943
29	0x3e4b2bce	0.19840929

3.weight f4 [10, 30]
0	0x3d40d4e6	0.047078036
1	0xbc456230	-0.0120473355
2	0x3c61f42b	0.013791124
3	0xbb9dbb99	-0.004813623
4	0x3dc3e388	0.095648825
5	0x3c51a300	0.01279521
6	0x3d908544	0.070566684
7	0x3de6737a	0.11252494
8	0x3abfdefc	0.0014638598
9	0xbe0ce335	-0.13758548
10	0x3dca6d1f	0.098840944
11	0x3dd9306f	0.10604941
12	0x3d01c53f	0.03168225
13	0x3d20de88	0.039274722
14	0xbc4d60bc	-0.01253527
15	0x3dd1c0c6	0.10241847
16	0xbd6910b0	-0.05690068
17	0xbdf0629a	-0.11737557
18	0x3cd9aee5	0.026572654
19	0x3e336eb7	0.17522703
20	0xbcbbd1a2	-0.02292711
21	0xbe2452a0	-0.16047144
22	0x3d9e508d	0.077302076
23	0x3e091624	0.13387352
24	0x3ce14fb0	0.027503818
25	0x3d7326b5	0.059363086
26	0xbe1baa86	-0.15201768
27	0xbbae318b	-0.0053159646
28	0x3de87e81	0.11352254
29	0x3d5fe841	0.054664854
30	0xbcc05334	-0.023477174
31	0xbd2bb323	-0.041918885
32	0x3d87edcb	0.06637152
33	0xbe0589d1	-0.13040854
34	0x3e2f871a	0.17141381
35	0xbdd3306d	-0.10311971
36	0x3e12dea8	0.14342749
37	0x3c4fc592	0.012681382
38	0x3e3db333	0.1852539
39	0xbd036cf4	-0.032086328
40	0xbd4fdd6b	-0.05074827
41	0x3e01e10e	0.12683508
42	0x3d749c85	0.05971958
43	0xbe2b5258	-0.1673063
44	0x3e2acb65	0.16679151
45	0xbc770138	-0.015075974
46	0xbdb1c06d	-0.086792804
47	0x3e182117	0.14856373
48	0x3e059d35	0.13048251
49	0xbe2c6843	-0.16836648
50	0xbc96bd37	-0.018400772
51	0x3e2497f2	0.16073588
52	0xbde45867	-0.11149674
53	0xbe1c93d1	-0.15290762
54	0xbd5b5138	-0.053544253
55	0x3dc3d45c	0.09561989
56	0xbc19bd19	-0.009383463
57	0x3d45a4f9	0.048253033
58	0xbe072beb	-0.13200347
59	0xbde309b7	-0.11085837
60	0x3b1bf6d8	0.0023798253
61	0xbbbac0c4	-0.005699249
62	0xbd8a5dc6	-0.06756167
63	0xbd8409d1	-0.06447185
64	0x3dd1792c	0.1022819
65	0x3dc9d9a3	0.09855964
66	0xbd81968d	-0.063275434
67	0x3ca48f08	0.020087734
68	0x3ddb20db	0.10699626
69	0x3c847ab2	0.016171787
70	0x3e3c0cb1	0.18364216
71	0xbd104e29	-0.03523079
72	0x3e218d58	0.15776575
73	0xbdf34577	-0.11878484
74	0xbdc889a0	-0.09791875
75	0x3d9ab15a	0.075533584
76	0xbd7a8a3e	-0.061166994
77	0xbcd72054	-0.026260532
78	0x3cdcb4dc	0.02694171
79	0xbe062a80	-0.1310215
80	0xbdfcb1c8	-0.123385966
81	0xbde66daf	-0.11251389
82	0x3e3873a3	0.18012862
83	0xbe0a5789	-0.13509955
84	0x3dc5f274	0.09665385
85	0xbe2c665e	-0.16835925
86	0x3c0d3f73	0.0086210845
87	0xbe18dc46	-0.14927778
88	0xbe00fa66	-0.1259552
89	0xbe0f60a3	-0.14001708
90	0xbd6423aa	-0.055698074
91	0xbe24645b	-0.16053908
92	0xbe2edb48	-0.17075837
93	0xbdcbe38e	-0.09955512
94	0x3e017718	0.12643087
95	0xbdf35385	-0.118811645
96	0x3db9981c	0.09062216
97	0xbdd5a9a8	-0.1043275
98	0x3e1c9eaf	0.15294908
99	0x3e22d918	0.15903127
100	0x3d96dd71	0.07366455
101	0x3d414720	0.04718697
102	0x3c7468e3	0.014917585
103	0x3d659286	0.05604794
104	0xbe02683c	-0.12735075
105	0xbdf8816a	-0.12134059
106	0xbcef2418	-0.029192016
107	0x3d83e407	0.06439977
108	0xbdfc7bee	-0.12328325
109	0xbd2c516d	-0.04206984
110	0xbe35355b	-0.17696135
111	0x3e00109e	0.12506339
112	0xbdc0c62c	-0.09412798
113	0xbde0519b	-0.10953065
114	0x3ddb0c08	0.10695654
115	0xbe360673	-0.17775898
116	0xbd5885e5	-0.052862067
117	0x3d4f961a	0.050680257
118	0x3cfa6935	0.030567745
119	0xbe3c9a81	-0.18418314
120	0x3df4eb4a	0.1195894
121	0x3d3c9ff0	0.046050966
122	0x3dbe94eb	0.093057476
123	0x3d8c1057	0.06839054
124	0x3dc51988	0.0962401
125	0xbd9252c4	-0.071446925
126	0xbdd7b9f7	-0.10533517
127	0xbdd901f7	-0.10596078
128	0xbb0d68a1	-0.0021577256
129	0x3dd79718	0.10526866
130	0x3dfc9bd7	0.123344116
131	0xbc458228	-0.012054957
132	0x3cad0e22	0.021124903
133	0x3e1cb310	0.15302682
134	0x3d060e23	0.032728326
135	0x3de17e8a	0.110104635
136	0xbd4170a4	-0.047226563
137	0xbdd3ebab	-0.103476845
138	0xbe327634	-0.17427903
139	0x3de6c1cf	0.11267435
140	0x3e064d8d	0.13115521
141	0xbda86354	-0.0822207
142	0xbd099883	-0.033592712
143	0xbdacea70	-0.08443153
144	0x3e354b72	0.17704561
145	0xbe1b9019	-0.15191688
146	0x3e1ff389	0.15620245
147	0x3e1d2f87	0.15350161
148	0x3e2869f8	0.16446674
149	0xbe34ac6e	-0.17643902
150	0x3d54976a	0.051902212
151	0x3de209d6	0.11037032
152	0x3e1ead3a	0.15495768
153	0x3d38abf1	0.04508585
154	0x3e3ac0dc	0.18237633
155	0xbe23f4fe	-0.16011426
156	0x3d3e1da0	0.04641497
157	0x3dc63d33	0.096796416
158	0xbd17f44d	-0.037098218
159	0x3dc1e445	0.09467367
160	0x3b8f8050	0.0043793097
161	0xbce756b4	-0.028239585
162	0xbdafcc57	-0.085838966
163	0x3e284e1c	0.16436046
164	0xbd72c18b	-0.05926661
165	0xbc5229a6	-0.012827313
166	0x3e0a2846	0.13491926
167	0x3e0d5bc1	0.13804533
168	0xbccb605c	-0.024826221
169	0x3e0e387f	0.13888739
170	0xbd04e6a3	-0.032446515
171	0x3e2c6d1e	0.168385
172	0x3e363313	0.17792921
173	0x3dad58ea	0.08464225
174	0x3e14b276	0.14521202
175	0xbdbcf9ef	-0.092273585
176	0x3e0767f1	0.13223244
177	0xbdadb110	-0.084810376
178	0x3d9de6b6	0.0771002
179	0x3dfa97ce	0.12235986
180	0xbddf80ab	-0.10913213
181	0xb86f356e	-5.70318e-05
182	0xbe29e9e4	-0.16593128
183	0xbe098596	-0.13429865
184	0x3e044f24	0.12920815
185	0x3d77bd8f	0.06048351
186	0x3d59eb14	0.053202704
187	0xbc9da7af	-0.019244997
188	0xbe03d01b	-0.12872355
189	0xbd0ff2a7	-0.03514352
190	0xbe07d12b	-0.13263385
191	0xbe3d94e1	-0.18513824
192	0x3e09dc53	0.13462953
193	0xbdd464d4	-0.10370794
194	0xbd8fa941	-0.070147045
195	0x3b92b5f0	0.004477255
196	0x3d241894	0.040062502
197	0xbd358f47	-0.044326093
198	0x3d1a7467	0.037708666
199	0xbda68a49	-0.081318446
200	0x3e109811	0.14120509
201	0x3d4fd314	0.05073841
202	0x3d97fb34	0.0742096
203	0xbe2a8fce	-0.1665642
204	0x3da351ec	0.0797461
205	0x3df3df84	0.119078666
206	0x3c8bafa6	0.01705153
207	0xbe2ea034	-0.170533
208	0x3e1c1415	0.15242036
209	0xbe1ee4c5	-0.15516956
210	0x3d097ed2	0.03356821
211	0xbc252090	-0.010078564
212	0xbdc2e013	-0.09515395
213	0xbddd1bb1	-0.10796297
214	0xbe35ccf0	-0.17753959
215	0x3daf5c81	0.085625656
216	0xbd9fc7c3	-0.078017734
217	0xbd8a2c62	-0.067467466
218	0xbc3f2034	-0.011665393
219	0xbd9978b9	-0.07493729
220	0xbe06ce0f	-0.13164543
221	0x3e10a813	0.14126615
222	0xbd0d615b	-0.034516674
223	0x3e064d19	0.13115348
224	0xbe0e708d	-0.13910122
225	0x3e23785e	0.15963885
226	0x3de160b0	0.1100477
227	0xbd91682b	-0.070999466
228	0x3da5fbb5	0.0810465
229	0xbd3107a8	-0.043220192
230	0xbe29b976	-0.16574654
231	0xbe1fd603	-0.15608983
232	0xbe1ec880	-0.15506172
233	0x3ab3bdf4	0.0013713227
234	0x3be11640	0.0068691075
235	0xbd552aba	-0.0520427
236	0x3ccde3f1	0.025133105
237	0xbdacd018	-0.08438128
238	0x3da9ff38	0.08300632
239	0x3e188d81	0.1489773
240	0xbe07ce3e	-0.13262269
241	0x3afb3c82	0.0019167813
242	0xbd850a26	-0.06496076
243	0x3ccbca3c	0.024876706
244	0xbd80342f	-0.06259953
245	0xbd5b2c14	-0.053508833
246	0xbdfff0ac	-0.124970764
247	0x3e3193cc	0.17341536
248	0xbd966ae7	-0.07344609
249	0x3d2785c7	0.040899064
250	0xbacca379	-0.0015612683
251	0xbcc7a5bb	-0.024371019
252	0xbe2c8198	-0.16846311
253	0xbd5a58c3	-0.053307306
254	0x3dadcb27	0.08486014
255	0xbe0344a1	-0.12819149

3.bias f4 [10]
0	0xbc081ae9	-0.008307197
1	0xbd8786c9	-0.06617505
2	0xbe32fb05	-0.17478569
3	0xbc39f2b7	-0.011349372
4	0x3d3e9815	0.046531755
5	0xbd287f07	-0.041136768
6	0xbe1131db	-0.14179175
7	0x3a0cea20	0.00053754635
8	0xbd5fd655	-0.054647762
9	0xbe3042b1	-0.17212941

5.weight f4 [1, 10]
0	0xbd524879	-0.051338647
1	0xbddfefc6	-0.10934405
2	0xbd20ab47	-0.039225843
3	0x3d96a146	0.07354979
4	0xbd1499b9	-0.036279414
5	0xbe9d4c48	-0.3072226
6	0x3dee97b6	0.1165003
7	0xbc427b0a	-0.011870155
8	0x3c9ed755	0.019389788
9	0x3e844135	0.25831
