nirab.pt (torch, 52051 bytes, 3 tensors)

1.weight f4 [50, 250]
0.05983751 0.031740755 0.05724594 0.03186612 -0.017519735 0.06649565 0.030619804 0.01844531
0.013130521 0.033258367 -0.015674433 0.044303715 0.059003387 -0.0048503564 0.09619599 -0.002003548
0.07665965 0.074302755 -0.008262843 0.057117604 -0.0044125286 0.058019537 0.0319151 0.039325465
0.011274501 0.07915783 0.012206386 -0.041994896 -0.018348373 0.014388665 0.012884164 0.05026726
-0.03649722 -0.012300088 0.023698447 -0.024830196 -0.021200875 -0.037607968 0.02878949 0.020133805
-0.013602853 0.09606031 0.06401245 0.035716012 -0.0145088015 -0.0126671875 0.08559211 0.042774517
0.0072297216 0.02146656 -0.0010545978 -0.008022141 0.042303603 0.022554891 0.036366343 0.063173026
0.083174385 -0.03386361 0.00092877465 0.025447486 0.05595832 0.08652024 -0.04541255 0.07429559
0.021054756 0.0181273 0.046429045 0.051165104 -0.01329144 0.07111558 -0.01064786 0.102958955
0.059040222 0.052075457 0.09532531 0.010390622 0.072245 -0.029050373 0.07012349 0.038639817
-0.017005123 0.079244986 -0.008824836 -0.009289621 -0.0063635064 0.025316892 0.06958668 -0.016952926
-0.022646429 0.08390958 -0.0061887167 0.01879986 0.07334735 -0.027374608 0.015347982 0.0948231
-0.014145039 0.06421869 -0.011607043 0.09477709 0.096337356 0.01979862 0.0508226 0.044719882
-0.0050537093 0.046469595 -0.018637802 0.047225747 -0.038712952 0.046030592 0.08301057 0.0041695395
-0.049629968 -0.0066201095 0.008599206 0.004818249 -0.028508142 0.0538095 -0.0313712 -0.0100724595
0.024024371 0.08936185 -0.006133035 0.017867943 0.01693365 0.013237822 -0.019296812 0.041724112
-0.025823645 0.10062759 -0.0080285715 -0.005753897 -0.0027555884 0.029332424 0.013587918 0.09038356
0.016203351 -0.022070436 -0.039860383 0.028358364 0.044161685 0.015438557 -0.0021922167 0.023734337
0.05024783 0.01720052 0.03759132 0.053259905 0.037142772 0.05622473 0.04031763 0.06710861
0.041977458 0.019846328 0.09718964 0.08016217 -0.017238855 -0.017610796 -0.023581915 0.08673764
0.07313697 0.09062977 0.03235079 0.052277897 0.01092958 -0.008763935 0.043638237 0.06533317
-0.0055679306 0.02243735 0.0026654848 0.09178229 -0.033827417 0.033578865 -0.02462241 0.04893953
0.0017973577 -0.0034099906 0.07568817 0.0051152143 0.09634299 0.025784634 -0.04229844 0.011784991
0.09911105 0.06486324 -0.017708391 0.013862174 0.022404648 0.071517155 0.01735395 0.07881827
-0.03719169 -0.015188344 0.052642405 0.034660008 0.071832545 0.014189658 0.021901798 0.029285498
0.063151345 0.024734754 -0.0018890162 0.059764795 -0.013781774 0.076138765 -0.020299096 0.025611378
0.031678613 0.021065796 0.055829328 0.03293877 0.072517276 0.032986253 0.030673979 0.035526395
0.00053588394 -0.015624162 -0.038500223 0.071458735 -0.00522909 0.02124046 0.05070153 -0.0007115011
0.009029025 -0.01880891 0.021326747 0.05744279 0.041181594 0.003339124 0.07965088 0.0924938
0.013949081 -0.028167017 0.097608574 0.0818305 -0.022157881 -0.020567631 0.06887272 0.02253979
0.014982758 0.09362132 -0.040893696 0.0505378 0.031554896 0.09228472 0.065063775 0.040464085
0.022738652 0.0034402022 0.012262375 0.006366994 -0.023286639 0.011574895 -0.023286594 0.010314582
00000000: 2d18 753d 9802 023d b87a 6a3d 0c86 023d
00000010: 8c85 8fbc df2e 883d 62d6 fa3c 9e1a 973c
00000020: 6621 573c ed39 083d ab67 80bc d077 353d
00000030: 89ad 713d bdef 9ebb 6702 c53d f54d 03bb
00000040: bcff 9c3d 0b2c 983d e060 07bc 26f4 693d
00000050: f996 90bb e5a5 6d3d 68b9 023d bd13 213d
00000060: afb8 383c 801d a23d 4bfd 473c d702 2cbd
00000070: 544f 96bc 6fbe 6b3c 1a18 533c 0be5 4d3d
00000080: 1c7e 15bd 4f86 49bc 3f23 c23c b268 cbbc
00000090: 75ad adbc d00a 1abd f0d7 eb3c a6ef a43c
000000a0: 80de 5ebc 45bb c43d f618 833d f44a 123d
000000b0: 53b6 6dbc 098a 4fbc eb4a af3d 5534 2f3d
000000c0: 4de7 ec3b a4da af3c 6e3a 8aba 4c6f 03bc
000000d0: 8b46 2d3d 09c5 b83c e0f4 143d dc60 813d
000000e0: 5557 aa3d 92b4 0abd 0379 733a 3f77 d03c
000000f0: 8d34 653d 8631 b13d 8302 3abd 4928 983d
00000100: 067b ac3c b47f 943c 622c 3e3d 8092 513d
00000110: 57c4 59bc 0ca5 913d 5d74 2ebc 25dc d23d
00000120: 29d4 713d 134d 553d eb39 c33d 6d3d 2a3c
00000130: 30f5 933d 0cfb edbc e89c 8f3d c944 1e3d
00000140: 544e 8bbc 324b a23d 0c96 10bc 7f33 18bc
00000150: f684 d0bb 5f65 cf3c 7683 8e3d dde0 8abc
00000160: 0185 b9bc c9d8 ab3d b8ca cabb 2a02 9a3c
00000170: 2337 963d b740 e0bc 1a76 7b3c 9d32 c23d
00000180: 98c0 67bc 1785 833d 782b 3ebc 7e1a c23d
00000190: 854c c53d b730 a23c 5c2b 503d 322c 373d
000001a0: 9699 a5bb e756 3e3d 4eae 98bc c96f 413d
000001b0: 7991 1ebd 938a 3c3d 7201 aa3d a2a0 883b
000001c0: cb48 4bbd 81ed d8bb afe3 0c3c 67e2 9d3b
000001d0: e889 e9bc 5a67 5c3d 167f 00bd f506 25bc
000001e0: c2ce c43c 5803 b73d a0f7 c8bb cb5f 923c
000001f0: 70b8 8a3c 73e3 583c 5914 9ebc e7e6 2a3d
00000200: 1c8c d3bc d715 ce3d 458a 03bc 308b bcbb
00000210: 1a97 34bb 8d4a f03c dc9f 5e3c 041b b93d
00000220: e4bc 843c 0fcd b4bc a444 23bd cd4f e83c
00000230: e2e2 343d 00f2 7c3c 4bab 0fbb 836e c23c
00000240: abd0 4d3d 1be8 8c3c 5bf9 193d 0f27 5a3d
00000250: 0523 183d e74b 663d 1924 253d 3d70 893d
00000260: 8ef0 2b3d c494 a23c 5d0b c73d 102c a43d
00000270: 8038 8dbc 8444 90bc dc2e c1bc 81a3 b13d
00000280: d6c8 953d 1a9c b93d 4382 043d 5921 563d
00000290: fb11 333c 9c96 0fbc 02be 323d 66cd 853d
000002a0: 3073 b6bb 89ce b73c 6aaf 2e3b 5af8 bb3d
000002b0: 9e8e 0abd fe89 093d f0b4 c9bc d174 483d
000002c0: 5195 eb3a 267a 5fbb 6602 9b3d 879d a73b
000002d0: 794f c53d 4c3a d33c 2141 2dbd d615 413c
000002e0: bcfa ca3d 05d7 843d 3011 91bc 2c1e 633c
000002f0: f489 b73c 9677 923d df29 8e3c 796b a13d
00000300: 5056 18bd 88d8 78bc 909f 573d a7f7 0d3d
00000310: f11c 933d bd7b 683c 666b b33c 24e8 ef3c
00000320: 7e55 813d 8aa0 ca3c de98 f7ba eecb 743d
00000330: f3cc 61bc a4ee 9b3d 4a4a a6bc f4ce d13c
00000340: 6fc1 013d 2d92 ac3c 4bad 643d ceea 063d
00000350: f083 943d 981c 073d ff47 fb3c 2084 113d
00000360: 907a 0c3a 7cfc 7fbc 69b2 1dbd f558 923d
00000370: c958 abbb 7900 ae3c 68ac 4f3d 0884 3aba
00000380: 7aee 133c 2515 9abc 6eb5 ae3c 2249 6b3d
00000390: 08ae 283d 34d5 5a3b 0020 a33d 646d bd3d
000003a0: b08a 643c 84be e6bc 01e7 c73d c096 a73d
000003b0: 7284 b5bc 737d a8bc 240d 8d3d 5ea5 b83c
000003c0: 3e7a 753c 89bc bf3d 2680 27bd b900 4f3d
000003d0: b53f 013d c5ff bc3d 2840 853d abbd 253d
000003e0: 6946 ba3c 0475 613b 21e8 483c 38a2 d03b
000003f0: 9fc3 bebc a1a4 3d3c 87c3 bebc 7efe 283c

1.bias f4 [50]
0.055585887 0.10874482 0.07707933 -0.006341774 0.011040345 0.10589397 0.005293248 -0.010692315
-0.011035665 -0.019871995 0.08941059 0.0046598525 0.06484808 0.08343273 0.028813485 0.03065847
-0.06591636 0.00775738 0.028213697 0.09940106 -0.057328027 -0.069935195 0.0146740135 -0.0009439336
0.056947295 0.023024753 0.06596474 0.06498988 -0.030877626 0.062917285 0.06289322 -0.018444696
-0.004130474 0.0991472 0.07710478 0.06729716 -0.050080676 -0.027365007 0.019513743 0.043124784
0.05679207 -0.00092739356 -0.060519755 0.011083635 0.06205746 -0.01832647 0.079936 0.009920168
0.03616356 0.027479608
00000000: 07ae 633d 9bb5 de3d c5db 9d3d a8ce cfbb
00000010: 90e2 343c f0de d83d fc72 ad3b d22e 2fbc
00000020: efce 34bc 98ca a2bc e61c b73d adb1 983b
00000030: 12cf 843d c7de aa3d 420a ec3c 7927 fb3c
00000040: 28ff 86bd 9f31 fe3b 6920 e73c c892 cb3d
00000050: cbd0 6abd 2f3a 8fbd 466b 703c 5072 77ba
00000060: 9141 693d 689e bc3c 8618 873d 6a19 853d
00000070: 13f3 fcbc c7da 803d 29ce 803d 5519 97bc
00000080: ed58 87bb b00d cb3d 1ce9 9d3d 18d3 893d
00000090: 6521 4dbd 942c e0bc 49db 9f3c 9da3 303d
000000a0: cd9e 683d 541c 73ba 90e3 77bd 2298 353c
000000b0: f72f 7e3d 6521 96bc 7cb5 a33d 3388 223c
000000c0: 3e20 143d ea1c e13c

3.weight f4 [1, 50]
-0.049861126 -0.101497404 -0.1479295 -0.06562428 -0.062061045 -0.09548429 -0.14358385 0.039320324
-0.055855386 0.057330534 -0.115537725 -0.0558969 -0.13410485 -0.17739014 0.056692515 -0.0048553385
0.055409532 0.106088996 -0.0038427042 -0.056184165 0.04212283 0.014962481 0.07888208 -0.0572467
-0.15576513 -0.08488334 -0.1331171 -0.09452377 0.10142412 -0.08380551 -0.15536383 0.08998849
0.034424435 -0.05647417 -0.03299766 -0.09048327 0.06530572 0.10833811 -0.17888452 -0.05506691
-0.072613284 -0.12541497 0.09895898 0.09688157 -0.09981384 0.048758432 -0.116569094 0.015655244
-0.10338491 0.09319156
00000000: 2e3b 4cbd dfdd cfbd d57a 17be 0666 86bd
00000010: b933 7ebd 448d c3bd a507 13be 590e 213d
00000020: 9ec8 64bd 6cd3 6a3d 0b9f ecbd 26f4 64bd
00000030: c852 09be c3a5 35be 6936 683d 8819 9fbb
00000040: 1bf5 623d 3045 d93d e1d5 7bbb 5e21 66bd
00000050: fd88 2c3d 3225 753c ee8c a13d 847b 6abd
00000060: e580 1fbe 51d7 adbd d94f 08be ae95 c1bd
00000070: 73b7 cf3d 39a2 abbd b217 1fbe e34b b83d
00000080: a300 0d3d 7651 67bd 8e28 07bd 4b4f b9bd
00000090: 01bf 853d 5fe0 dd3d 812d 37be d78d 61bd
000000a0: 46b6 94bd c86c 00be 01ab ca3d d869 c63d
000000b0: 336b ccbd ecb6 473d c7bb eebd 6d3f 803c
000000c0: 78bb d3bd 37db be3d
