nirab_new.pt (torch, 52075 bytes, 3 tensors)

1.weight f4 [50, 250]
00000000: 9725 e63d fb84 4d3d 20e0 993d f808 af3d
00000010: b630 d13d 1a75 dd3d e3ab 6e3d 9739 3c3c
00000020: 88e1 fb3c 2ba5 f43c a7d0 f43d 53f8 d83c
00000030: 10b9 c73c 966f 80bc b23d 803d bd34 0d3e
00000040: 1fb8 ba3d 610b ba3d c6a3 683d 59c4 363d
00000050: 30e6 163e 27cf b53d 024d 7a3d 1762 043c
00000060: 42b7 de3d 149c 053e 8efa 7a3d 71b4 113d
00000070: 833c c43d c02b bf3d 1edd d43d 0f4b 7e3d
00000080: 5d5c ccbb 81e5 96bb 9879 013e f877 b63d
00000090: 33b3 233d 411c 29bd cd9b b53d 541c f03d
000000a0: 27ca f63d 200a 783d 5eaa d63d 2c0f a03d
000000b0: 91a5 0e3e 9ab2 d53d 642d 213d 5f8a 823d
000000c0: 4b09 0d3d c80d ae3d 323e ab3d b682 8e3d
000000d0: 29b1 a0bc 6f35 893d a2da d73d 1421 de3d
000000e0: 6628 d33d 0bb5 6f3d 136b ec3c ac6d d33d
000000f0: eff1 a33d f20b c53d 0937 a8bc 80a6 493d
00000100: 9ce3 d63d ae9e 8b3d 7123 753c cf36 1f3b
00000110: a9c2 8e3d 3f00 0e3e 9790 0c3e e9f7 443d
00000120: bfa6 b73d 58f6 633b 3e05 f23d fa36 723d
00000130: 47c4 eb3d d18c d13d 6519 d33b 8a4d 033d
00000140: 4baa 533d dca5 9a3d e17f 6fbb c001 aa3c
00000150: a1f2 043e 64ed be3d cfeb ba3d ee37 b23d
00000160: c678 f43c c0b3 c23d 5c89 a53d ebaf b93c
00000170: 9c08 893c 6e1e babc 3719 843d 16a5 823d
00000180: 6771 083e 0603 3a3d 9ba0 b03d 73dc 8b3d
00000190: 284d 103d 6ae0 e73d 6c5a 133d bfad b0bc
000001a0: 489a fd3d cb42 ed3d 986b 983d 747e 93bb
000001b0: c5ae d03c ceea 093e 7e63 313d 3445 1d3e
000001c0: 2bf0 793b 87be a33d c0b5 103e af70 f33d
000001d0: faae 563d 904c 163d f975 0c39 ca12 b33d
000001e0: 6203 f73d 041c 983d 963d 08bc ab76 223d
000001f0: 0057 693d 0f39 7c3d 1dcd cb3d 43be 463d
00000200: 7d88 a1bc d164 b23d 1f9d 4f3d 67bb 0b3d
00000210: cdc6 893c 5bed 073b c957 8f3d 4681 d83d
00000220: 5ccc a93b eb26 aa3d 10b8 463d 6ab0 513d
00000230: 06b0 b23d 42fb bc3c c154 c23c 845b c4bb
00000240: 3154 c73d 4fa8 9b3d a7f3 9c3d 9e3f 5d3c
00000250: 6e3a ae3b f4fd ad3d 0911 fc3c 18ea 3a3d
00000260: 1a1d b93c f0bd 963c 7bbe eb3d ffa5 a23d
00000270: db38 893d cc4c 5c3c 10a7 9abc 1994 a73d
00000280: 5659 9a3d e4ff 113e f48f d9bc fe13 8f3c
00000290: 9c0f 903d 8de6 d53d 41d6 f33d 7051 b7bc
000002a0: 4d33 a73b b3e4 ae3d 729b 2c3d f341 343c
000002b0: e1fa 8c3d 6a0e 153d 01da 953c c239 c33c
000002c0: 37f6 ba3c 0a79 af3d b013 313d 2ff9 943d
000002d0: 0beb 0a3e 66ec 973d c398 bdbc 52df 8d3c
000002e0: 7667 083e 69e2 af3d c559 e23c 5000 373c
000002f0: 1806 a33d c46b 4c3d 7abf 1f3d 1632 053e
00000300: eb75 ab3c 9366 a63c 1315 ac3d f5df a43d
00000310: 4011 723d 9813 1e3d 1fae e63b 93c6 e53c
00000320: 23d8 cc3c 1d46 c53d 9df9 07bc a180 283d
00000330: 2a8c 9d3d 7220 003e 28cb 103d 7858 043c
00000340: 3ccb a23d 1543 003e 150e 103e a065 cb3d
00000350: 5708 b53d 6e88 bc3c 180a 093e ea93 a63d
00000360: 8847 613d 279c 403d 1c2e d63c 57fe f23d
00000370: a478 753d ca7c 523c a1be 8c3d 5459 8c3d
00000380: ac58 043e a0cc bb3d c878 f13d 2672 463d
00000390: b17c 993c 7611 5d3d ae7b ca3d 4ada 143d
000003a0: 8a11 943d 6b70 463d dc5f 053d 1165 5f3d
000003b0: 5ef1 f73d 5cef 48bc 8cea 7b3c 14fd c13d
000003c0: 8e8c f23d 0410 003e 65d4 fb3c 144c 47bc
000003d0: 2cef 053d 25e7 4c3d 0ad2 583d f0f4 093d
000003e0: 2180 4fbc 1564 e13d e107 293d 5cf4 a23c
000003f0: d291 a93c 883c 063d 4c3e e43d 1909 4d3d
0.112376384 0.05017565 0.075134516 0.085466325 0.10214369 0.10813351 0.058269393 0.01148834
0.03074719 0.029863914 0.1195386 0.026485598 0.024380237 -0.015678208 0.062617674 0.1378965
0.091171496 0.090842016 0.05679681 0.044620845 0.14736247 0.08877402 0.061108597 0.008080027
0.108747974 0.1304782 0.061274104 0.035572473 0.09581854 0.093345165 0.10393737 0.0620833
-0.0062365965 -0.0046049957 0.1264404 0.08909601 0.03996582 -0.04128671 0.08867607 0.11724153
0.12050276 0.06055653 0.10481714 0.07815394 0.13930346 0.10434456 0.03934993 0.063740484
0.03443269 0.08498722 0.08361472 0.06958525 -0.019615727 0.06699645 0.10539748 0.10846153
0.1031044 0.058522265 0.02885965 0.103236526 0.080051295 0.09621419 -0.020534055 0.049231052
0.10492632 0.06817375 0.014962063 0.0024294143 0.06970722 0.13867281 0.13727032 0.048087988
0.08967351 0.0034784283 0.11817406 0.05913446 0.11512046 0.10231937 0.0064422362 0.03205637
0.051676076 0.075511664 -0.0036544728 0.020752788 0.1298318 0.093226224 0.09127008 0.08702074
0.029842746 0.09506941 0.0808284 0.022666892 0.016727738 -0.022719588 0.06450122 0.06379144
0.1332451 0.04541304 0.08624383 0.06829157 0.035229832 0.113221005 0.035974905 -0.021567224
0.123829424 0.115850054 0.07442397 -0.0045011584 0.025473962 0.13468477 0.043307774 0.1535843
0.0038137536 0.079953246 0.14131832 0.11886727 0.052412964 0.03669411 0.00013395389 0.08743818
0.12061192 0.074272186 -0.0083154645 0.03966395 0.056967735 0.061577853 0.09951232 0.04852129
-0.019718403 0.087106355 0.05068695 0.034114268 0.016818428 0.002074084 0.069991656 0.10571532
0.0051818322 0.08308204 0.04851538 0.051193632 0.0872498 0.023069028 0.023722054 -0.005992355
0.09732855 0.07600462 0.076636605 0.013503937 0.005317024 0.08495703 0.030769842 0.045633405
0.022596885 0.018401116 0.11510941 0.079418175 0.067002974 0.013446044 -0.01887849 0.08182544
0.07536571 0.14257771 -0.0265579 0.017465588 0.07034227 0.10444365 0.119061 -0.0223777
0.005102551 0.08539715 0.04214043 0.011002052 0.06883789 0.0363907 0.018292429 0.023831252
0.022822483 0.08568008 0.043231666 0.072740905 0.13566224 0.07418136 -0.023144132 0.017318401
0.13320717 0.08588106 0.027630696 0.011169508 0.07960147 0.04990746 0.039000966 0.13007388
0.020930251 0.020312583 0.08402457 0.08050529 0.059098482 0.038592905 0.0070398 0.02804879
0.025005406 0.09632514 -0.008299259 0.041138295 0.0769275 0.12512377 0.035349995 0.008077733
0.0794892 0.1252559 0.14067872 0.09931493 0.08839481 0.023014273 0.13382757 0.08133681
0.05499986 0.04702392 0.026145034 0.11864918 0.059929505 0.012847135 0.06872297 0.068529755
0.1292445 0.091698885 0.11790615 0.048448704 0.018736215 0.05397173 0.09886871 0.03634099
0.07229908 0.048447054 0.03256212 0.054539744 0.12106584 -0.012264099 0.015375745 0.09472099
0.11843215 0.1250611 0.030740926 -0.0121641345 0.032698795 0.050025124 0.052934684 0.033680856
-0.012664826 0.11005417 0.04126728 0.01989191 0.020699415 0.03277257 0.11144695 0.050057504

1.bias f4 [50]
00000000: 91f7 dc3d b1cc 773d 9eee 573d 77fe 823f
00000010: 0909 143e cf84 1bbd 3226 76bd 6da9 f0bc
00000020: b17d 58bd 3ade 93bd dfb4 c23d 0bd0 8ebd
00000030: d2f8 85bd 6374 c43d 0975 fbbb 1abf d03c
00000040: 1e35 35bd 5ebb 68bc 1878 da3d b40a 7a3c
00000050: ce28 a93d 6fc7 6bbc c061 acbd 83be 213e
00000060: 4711 d73d 099e cc3d 6a5e c7bc 1f3d 8e3d
00000070: 3a2e 99bb a81d 7abd 7c61 6c3b 391c 6fbd
00000080: d03d 7ebd 0756 333e 98a6 0a3e d164 1d3e
00000090: e8f8 3bbd fcaa 893d 0ca9 163e 82ad 5a3d
000000a0: ae2f c33d 4d59 9f3d c38c a23c 3841 a23d
000000b0: d7fe 64bd c5d8 213e f479 233e 0667 0abd
000000c0: 1312 a3bc b9c0 c03d
0.10789407 0.060497943 0.052717797 1.0233907 0.14456572 -0.037968453 -0.06009502 -0.029377664
-0.052854244 -0.07220121 0.09507155 -0.06973275 -0.06541599 0.095925115 -0.007673864 0.02548175
-0.04424011 -0.014204828 0.10667437 0.015261341 0.08259736 -0.01439081 -0.08417082 0.1579533
0.10501342 0.0999108 -0.024337012 0.06945252 -0.0046747 -0.06106344 0.0036068847 -0.058376525
-0.062070668 0.17513286 0.13540113 0.1537049 -0.045891672 0.06722066 0.14712924 0.053388126
0.095305786 0.07780705 0.019842511 0.07922596 -0.055907097 0.15805347 0.1596449 -0.033789657
-0.01990608 0.09411759

3.weight f4 [1, 50]
00000000: c6aa 45be 74bf 6dbe 157c 6ebe 226f a8bf
00000010: 4eaa 85be c5e9 483d bdbc 073d f25f 083d
00000020: 94fe 9b3d ede2 a53d 4343 4fbe 6832 c63d
00000030: fde1 5b3d 4881 7dbe 8eab 823d fc67 d63c
00000040: 947a 793d 5e4c 143d f635 47be 602d a33c
00000050: 1094 8cbe 27b4 833d 7c0a dc3d f228 27be
00000060: cb30 44be 3b2f 4cbe 2c80 213d dcaf a4be
00000070: fbe8 853d 61db 123d b2bc e83d a8b2 7d3d
00000080: 411e ec3d ed4b 2abe dbea 86be ebdb 29be
00000090: b030 743d 0a7a 5abe 793e 65be 8350 66be
000000a0: fefc 58be 341b 8bbe 049f b03d bcb9 5dbe
000000b0: 5af2 a23b 98c6 78be 76cc 5dbe 9b78 eb3d
000000c0: 7043 843b 0fad 49be
-0.19303426 -0.23217565 -0.23289521 -1.3158915 -0.26106495 0.049051065 0.03313898 0.033294626
0.07616916 0.08099923 -0.20240502 0.09677583 0.053682316 -0.24756348 0.06380378 0.02617263
0.060907915 0.036205642 -0.19454178 0.019919097 -0.27456713 0.06430846 0.10744187 -0.16324213
-0.19159238 -0.19939892 0.039428875 -0.3216542 0.06538578 0.035853747 0.11364116 0.061937958
0.11529208 -0.16630526 -0.26351056 -0.16587798 0.059616745 -0.21335617 -0.22387113 -0.2249165
-0.21190259 -0.27169192 0.0862408 -0.21652883 0.004972738 -0.24294508 -0.21660027 0.11497613
0.0040363595 -0.19694923
