your_model.pt (torch, 52087 bytes, 3 tensors)

1.weight f4 [50, 250]
0.04112456 0.060509622 -0.020433504 -0.03750877 0.015537038 0.059188068 0.003283389 0.03096819
0.059411384 0.059737854 -0.052928083 0.026215866 0.03127843 -0.025064185 -0.013269383 -0.021743689
0.015637942 -0.012124546 -0.0493749 -0.047283765 0.04327721 -0.016535643 0.045275226 0.060076423
-0.059200488 0.060355887 0.05441948 -0.013170384 -0.03720774 -0.04696472 0.014022328 0.024971545
-0.04492551 -0.01921999 -0.025579017 0.032412484 -0.050506994 0.0144586265 0.02801136 -0.027672168
-0.061769288 -0.044208743 0.016031586 -0.018693354 -0.047309406 -0.06229012 -0.049943753 0.056442685
-0.0054008663 0.051958814 -0.043674707 -0.05579202 -0.0022206344 -0.027308013 0.02666945 0.017929196
-0.05774618 -0.045144927 0.05611983 -0.030500103 0.06038738 -0.0051384866 -0.028813746 0.028611243
0.037721947 -0.050304975 0.008411668 -0.029220946 0.0101787895 -0.03275056 0.052825302 0.016182117
0.03144133 -0.04048874 -0.057495937 -0.023810972 0.016171046 -0.02607644 -0.030319717 -0.033986658
0.04981888 0.04173077 0.039098635 0.027300939 0.036053337 0.06140901 0.049971007 0.020452239
0.029721826 -0.02024614 -0.026983242 -0.055385537 -0.015038036 -0.043174263 0.011588633 -0.017531395
0.012606084 -0.022006214 0.057971455 -0.04405463 -0.055908535 0.052375965 -0.058497168 0.0520297
-0.049117424 0.030865476 -0.013320304 -0.034082003 -0.046798863 0.056534976 0.061997205 0.04620605
0.062628806 -0.004541587 0.029417552 -0.0440448 0.03355351 -9.1433525e-05 0.0374061 0.016474806
0.0186034 -0.018599719 0.01665546 -0.034294188 0.0062748715 0.044249833 -0.047767173 0.0136690885
0.023656674 -0.008577511 0.031839676 0.025669485 -0.03215474 -0.046993036 0.015410773 0.039044946
-0.0331541 0.039922573 -0.0034871288 -0.035748463 0.012350075 -0.059977617 0.059108138 -0.017554283
0.017090067 0.05595859 0.007827781 0.05334294 0.0036150962 -0.015190598 -0.015820421 -0.042170174
0.037358433 -0.048228715 0.03250263 -0.007999726 0.032770835 -0.056903012 -0.037948385 0.014220238
-0.033275656 -0.00629304 0.023575738 0.009063475 0.010979287 0.0085218325 0.0024305359 0.017315343
-0.043410573 -0.04126198 0.00782451 0.049682647 0.017631061 0.059161924 0.0076126754 -0.034629118
0.03615599 0.011390284 0.029351123 0.0050281137 0.037680008 -0.053221464 -0.021419115 0.005333796
0.015683465 -0.022557996 0.05291193 0.031023525 -0.02837094 -0.048092946 0.033818103 -0.022421133
0.05390206 0.03998454 -0.02499152 0.026354223 -0.05383441 0.010742947 -0.053396046 0.033570662
0.009238742 -0.03977256 -0.059068978 -0.022007562 -0.011992615 0.045641445 -0.041190483 8.2835555e-05
-0.042636156 0.052951 0.048715852 -0.023614109 0.028650425 -0.043228164 -0.010471832 0.03768488
-0.034610897 0.02633977 0.012573205 -0.056343284 0.028204344 0.034554757 -0.06151407 -0.05135878
0.054448985 0.01958067 -0.017002631 0.036707103 -0.059333846 -0.014481094 -0.030870065 -0.0066216104
0.030408882 0.01675281 -0.02246014 -0.012595471 0.034406558 0.05204173 -0.012944523 0.038443692
-0.03316179 -3.822893e-05 0.05751943 0.02464901 0.0071668774 0.04188239 -0.0032099448 0.04187882
0.044252105 -0.033166576 0.043632038 0.030965768 0.05534733 0.044994563 -0.017735071 -0.024676237
00000000: 3a72 283d f0d8 773d 2a64 a7bc cca2 19bd
00000010: 108f 7e3c 306f 723d 202e 573b 00b1 fd3c
00000020: 5a59 733d aeaf 743d 1ecb 58bd a8c2 d63c
00000030: d01d 003d 6853 cdbc d467 59bc d21f b2bc
00000040: 241b 803c 08a6 46bc 563d 4abd 9fac 41bd
00000050: 7243 313d c275 87bc 8472 393d b212 763d
00000060: 367c 72bd bc37 773d f6e6 5e3d 98c8 57bc
00000070: 2567 18bd 145e 40bd e8bd 653c 2091 cc3c
00000080: d003 38bd 3e73 9dbc 168b d1bc f4c2 043d
00000090: 6ce0 4ebd e0e3 6c3c 1478 e53c beb0 e2bc
000000a0: cb01 7dbd 3a14 35bd ac54 833c ce22 99bc
000000b0: 82c7 41bd ed23 7fbd d291 4cbd 7230 673d
000000c0: c0f9 b0bb c4d2 543d 40e4 32bd 2c86 64bd
000000d0: 1088 11bb 0eb5 dfbc e479 da3c 40e0 923c
000000e0: 4287 6cbd e3e9 38bd e8dd 653d 5adb f9bc
000000f0: c258 773d c060 a8bb ce0a ecbc 2062 ea3c
00000100: 5482 1a3d 970c 4ebd 18d1 093c c460 efbc
00000110: f0c4 263c 7425 06bd 585f 583d 5c90 843c
00000120: a0c8 003d 85d7 25bd dc80 6bbd 3a0f c3bc
00000130: 2479 843c 429e d5bc 0e61 f8bc 9835 0bbd
00000140: e20e 4c3d e2ed 2a3d e425 203d 38a6 df3c
00000150: aaac 133d 0488 7b3d 66ae 4c3d 748b a73c
00000160: 307b f33c 3cdb a5bc f60b ddbc f2db 62bd
00000170: 1862 76bc 7fd7 30bd 40de 3d3c 009e 8fbc
00000180: c089 4e3c 6046 b4bc 7a73 6d3d a172 34bd
00000190: 5900 65bd 2e88 563d ba9a 6fbd 181d 553d
000001a0: 5a2f 49bd 98d9 fc3c 683d 5abc 9299 0bbd
000001b0: 2ab0 3fbd 3891 673d c8f0 7d3d 8e42 3d3d
000001c0: 8843 803d 98d1 94bb 14fd f03c 5268 34bd
000001d0: 686f 093d 00c0 bfb8 2437 193d 2cf6 863c
000001e0: 2866 983c 705e 98bc 0871 883c 1078 0cbd
000001f0: 709d cd3b 503f 353d 83a7 43bd 50f4 5f3c
00000200: a4cb c13c b088 0cbc 526a 023d d048 d23c
00000210: b0b4 03bd c57b 40bd 787d 7c3c 98ed 1f3d
00000220: 98cc 07bd da85 233d 5088 64bb fb6c 12bd
00000230: f857 4a3c 17ab 75bd 601b 723d 00ce 8fbc
00000240: 7800 8c3c d634 653d 1840 003c 207e 5a3d
00000250: 40eb 6c3b fce1 78bc d499 81bc a2ba 2cbd
00000260: 2805 193d 798b 45bd 7a21 053d 4811 03bc
00000270: b63a 063d 2213 69bd c46f 1bbd 00fc 683c
00000280: 0e4c 08bd d835 cebb e821 c13c f87e 143c
00000290: 78e2 333c 289f 0b3c a049 1f3b e8d8 8d3c
000002a0: 49cf 31bd 5202 29bd 6032 003c 0880 4b3d
000002b0: 046f 903c c653 723d c073 f93b 43d7 0dbd
000002c0: 4e18 143d 509e 3a3c c471 f03c e0c2 a43b
000002d0: 5a56 1a3d c0fe 59bd 2477 afbc 20c7 ae3b
000002e0: 9c7a 803c 8ccb b8bc 2eba 583d 0c25 fe3c
000002f0: 2c6a e8bc 1cfd 44bd da84 0a3d 86ac b7bc
00000300: 68c8 5c3d d4c6 233d 04bb ccbc d0e4 d73c
00000310: 7881 5cbd 3003 303c d0b5 5abd 6481 093d
00000320: 185e 173c 8de8 22bd 50f2 71bd 3449 b4bc
00000330: ac7c 44bc 86f2 3a3d 5ab7 28bd 00b8 ad38
00000340: 40a3 2ebd 26e3 583d 468a 473d 6072 c1bc
00000350: 4cb4 ea3c 0410 31bd 0c92 2bbc 765b 1a3d
00000360: 28c4 0dbd 80c6 d73c d8ff 4d3c 37c8 66bd
00000370: cc0c e73c 4a89 0d3d 2df6 7bbd 965d 52bd
00000380: e605 5f3d a467 a03c 1a49 8bbc 305a 163d
00000390: 0c08 73bd 1c42 6dbc 38e3 fcbc 18fa d8bb
000003a0: 0c1c f93c 303d 893c 54fe b7bc 3c5d 4ebc
000003b0: e4ed 0c3d b629 553d 4415 54bc 2277 1d3d
000003c0: a8d4 07bd 0058 20b8 7e99 6b3d b8ec c93c
000003d0: 20d8 ea3b de8c 2b3d f05d 52bb 2089 2b3d
000003e0: b241 353d add9 07bd 82b7 323d ecab fd3c
000003f0: e2b3 623d 384c 383d 2449 91bc d225 cabc

1.bias f4 [50]
-0.028805837 0.007927334 -0.01399716 0.009410867 0.012618846 0.044673584 0.016349895 0.08046137
0.05284698 -0.052485846 0.05805511 0.01490435 0.004741385 0.020514483 0.044074357 0.0070307082
-0.0068090484 0.03661763 -0.024244126 0.05209807 0.045425024 0.04338123 0.01377067 -0.024885766
-0.024307724 -0.031251248 -0.039573073 0.0070115505 0.039807476 -0.058531143 -0.026302129 -0.0021859147
0.0817807 -0.039656065 -0.00941248 0.037654664 0.03420942 -0.031872157 -0.0014231019 0.055752963
0.060226027 0.00031617426 0.061751816 0.07857211 0.041943423 -0.04518567 -0.04180231 -0.011271507
0.014495112 -0.059536535
00000000: 38fa ebbc a6e1 013c 5854 65bc 0930 1a3c
00000010: 47bf 4e3c a6fb 363d 37f0 853c eec8 a43d
00000020: 1376 583d 66fb 56bd 32cb 6d3d 6031 743c
00000030: 9f5d 9b3b fd0d a83c 5087 343d db61 e63b
00000040: 701e dfbb 5efc 153d 9e9b c6bc c964 553d
00000050: 970f 3a3d 84b0 313d 609e 613c 3cdd cbbc
00000060: fe20 c7bc 4f01 00bd 6017 22bd 26c1 e53b
00000070: 2a0d 233d 5abe 6fbd 9077 d7bc 9041 0fbb
00000080: a47c a73d 666e 22bd cd36 1abc c73b 1a3d
00000090: 2d1f 0c3d 618c 02bd 6087 baba 385d 643d
000000a0: 91af 763d 31c4 a539 79ef 7c3d 6aea a03d
000000b0: decc 2b3d 9c14 39bd e638 2bbd 20ac 38bc
000000c0: e87c 6d3c 95dc 73bd

3.weight f4 [1, 50]
-0.04369226 -0.071610495 -0.035782605 -0.10172813 0.01685562 0.1214049 0.06276328 -0.10201945
0.07235903 -0.07027512 0.13873209 -0.07800902 0.023195015 0.057494976 0.12196304 0.07269051
0.03177686 0.021516934 0.10667707 -0.09526742 -0.08741602 -0.09529762 -0.059102356 -0.009170905
0.098960295 -0.098650664 -0.04740543 -0.07383756 0.00028540194 -0.025860146 0.022603855 -0.05079616
-0.054289218 0.12151785 0.006351431 0.110456385 -0.1195852 0.09181443 -0.13779126 -0.12798557
-0.06668194 0.006448191 -0.13681798 -0.1509369 -0.10406644 -0.08865349 0.009327754 -0.060227375
0.01530917 -0.114270985
00000000: a8f6 32bd 86a8 92bd c890 12bd d656 d0bd
00000010: cc14 8a3c 22a3 f83d 098a 803d 93ef d0bd
00000020: f930 943d 67ec 8fbd c90f 0e3e 31c3 9fbd
00000030: 7903 be3c da7f 6b3d c2c7 f93d c3de 943d
00000040: 7428 023d 4844 b03c 8279 da3d 911b c3bd
00000050: 2c07 b3bd 662b c3bd 5015 72bd 9041 16bc
00000060: b2ab ca3d 5c09 cabd 322c 42bd 2638 97bd
00000070: 00a2 9539 a8d8 d3bc b82b b93c a20f 50bd
00000080: 5f5e 5ebd 5ade f83d aa1f d03b f536 e23d
00000090: 16e9 f4bd 3409 bc3d 2719 0dbe a60e 03be
000000a0: 8a90 88bd 594b d33b 031a 0cbe 348f 1abe
000000b0: c920 d5bd f68f b5bd 70d3 183c fbb0 76bd
000000c0: 50d3 7a3c e806 eabd
